pth_files/age.pth (torch, 86031 bytes, 10 tensors)

conv1.weight f4 [6, 3, 4, 4]
0.102570236 -0.3321068 -0.69801617 -0.61050165 0.17126396 0.037480183 -0.42564455 -0.47747514
0.11833098 0.25043786 -0.081063084 -0.18169852 0.19869466 0.1144663 0.29580373 0.15808414
0.062125158 -0.09115732 -0.5525503 -0.56296325 0.25827935 -0.08703276 -0.3892637 -0.50753313
0.15000731 0.21676019 0.13333896 -0.25423393 0.12530886 0.2076728 0.10526683 0.06665112
0.34061497 -0.086427785 -0.4377972 -0.5183925 0.24578895 -0.00245393 -0.24583626 -0.27484
0.26582167 0.29016465 0.0020361482 -0.13523942 0.506857 0.36815208 0.29519492 0.3205844
0.016422939 -0.046128828 -0.0059780125 0.18173227 -0.21015604 0.030915897 0.09549162 0.068810634
-0.1530038 -0.26822725 -0.104305774 0.00757674 -0.027903954 -0.14676742 -0.13096748 -0.19287501
-0.14204343 -0.11841215 0.1538039 0.051138815 -0.055346 -0.048782393 0.069646865 0.21364403
-0.018711206 -0.14963883 -0.0014819292 0.20535237 -0.087750584 -0.10185101 -0.07264434 0.028203135
-0.064178176 0.06107525 -0.051010657 0.2488831 0.09975963 -0.03447146 0.23823082 0.26677078
-0.07448433 -0.008490515 0.095618576 0.096819595 -0.050312422 -0.009481558 0.013758879 -0.07709204
-0.04533828 -0.09587914 -0.057359584 -0.14412765 -0.077539265 -0.05847266 0.008217915 0.13923386
-0.08712864 -0.027899915 -0.010695489 0.11654625 -0.025606047 0.11540875 -0.12892638 -0.12288304
-0.13929555 -0.05984115 -0.032854136 -0.06632625 -0.029090665 -0.14215612 0.08180144 0.047256015
-0.045117404 0.018730598 0.09303749 -0.019525338 -0.10493888 0.124786876 -0.13300146 0.012319616
-0.13665913 0.05788175 0.0840386 -0.08334306 -0.05499008 0.10826615 -0.022815892 -0.1096676
0.01036778 0.0117499875 0.12931468 0.019472584 0.007007092 0.033672076 0.08018637 -0.004789241
-0.11967285 -0.23629372 -0.22656184 -0.2373764 -0.24576373 -0.36015663 -0.22646888 -0.1118459
-0.13933566 -0.21607566 -0.29699123 0.10684387 -0.09891115 -0.31000638 -0.22590736 0.022835752
0.17969987 0.010799205 0.10803033 0.24340248 0.14388382 -0.059890427 0.112456635 0.24910474
0.12128444 0.046005826 0.30331805 0.42734557 0.22528973 0.2922695 0.35368887 0.36982116
0.12776868 -0.023074808 -0.123709425 -0.09735263 -0.020438407 0.06366292 0.06225925 0.10121725
0.041782893 0.019815482 -0.030176375 0.16978513 0.15309812 -0.01387859 0.13580973 0.38485143
-0.027082592 0.1648351 0.23832539 0.19861881 0.110368855 0.11473278 0.13618816 0.23878235
0.10719546 0.1351396 0.11725348 0.23377176 0.12049039 0.24278551 0.19298983 0.16685905
-0.27443802 -0.06636017 0.04663505 0.040907264 -0.055383913 -0.22602266 -0.1068638 -0.21864359
-0.19638188 -0.17511858 -0.24054575 -0.21063416 -0.06386464 0.009951763 -0.21683922 -0.15815607
0.07542064 0.051593523 0.060752623 -0.07941697 0.045869894 -0.12659368 -0.06871153 0.08268083
-0.11029583 -0.0913514 -0.06712881 -0.1768163 -0.057755977 0.11165829 0.052701753 0.051441636
0.12155362 0.120928966 0.13190936 0.26887602 0.17193055 -0.19444375 -0.16208637 0.19366074
0.18882832 -0.047390107 0.15817934 -0.018311506 0.2030373 0.10656342 -0.039397873 -0.022323074
00000000: 5810 d23d e709 aabe 30b1 32bf d649 1cbf
00000010: d25f 2f3e d284 193d 15ee d9be 9f77 f4be
00000020: 8357 f23d 6439 803e 6704 a6bd 2d0f 3abe
00000030: 9d76 4b3e 4f6d ea3d 9673 973e cfe0 213e
00000040: f376 7e3d b0b0 babd f073 0dbf 5c1e 10bf
00000050: 313d 843e 3b3e b2bd 924d c7be b1ed 01bf
00000060: 849b 193e 62f6 5d3e 028a 083e f32a 82be
00000070: f750 003e 2ea8 543e 2396 d73d 6280 883d
00000080: 1665 ae3e 0d01 b1bd f426 e0be 5fb5 04bf
00000090: 19b0 7b3e 1dd2 20bb 80bc 7bbe d4b7 8cbe
000000a0: c719 883e 7690 943e e670 053b 347c 0abe
000000b0: 61c1 013f 6e7e bc3e ca23 973e a323 a43e
000000c0: 6689 863c 95f1 3cbd 34e3 c3bb 0618 3a3e
000000d0: 2533 57be 5643 fd3c 1c91 c33d 97ec 8c3d
000000e0: 07ad 1cbe 1555 89be 449e d5bd 4d46 f83b
000000f0: d596 e4bc 334a 16be 571c 06be 0781 45be
00000100: d573 11be 1282 f2bd c57e 1d3e ef76 513d
00000110: 7db2 62bd 0cd0 47bd 04a3 8e3d 80c5 5a3e
00000120: 3e48 99bc ec3a 19be 4b3d c2ba e447 523e
00000130: 94b6 b3bd 4397 d0bd 8ec6 94bd 430a e73c
00000140: d96f 83bd 0b2a 7a3d 8df0 50bd 36db 7e3e
00000150: c74e cc3d f231 0dbd c8f2 733e 2e96 883e
00000160: 3e8b 98bd cd1b 0bbc acd3 c33d 5a49 c63d
00000170: 6614 4ebd 8958 1bbc ec6c 613c 6ee2 9dbd
00000180: a2b4 39bd 485c c4bd e2f1 6abd 3396 13be
00000190: e8cc 9ebd 0781 6fbd 6fa4 063c 5293 0e3e
000001a0: 8070 b2bd 5d8e e4bc 223c 2fbc cdaf ee3d
000001b0: c6c3 d1bc 6c5b ec3d 4705 04be 1aaa fbbd
000001c0: 7ea3 0ebe fe1b 75bd 0f92 06bd 0fd6 87bd
000001d0: 8c4f eebc 6091 11be 8387 a73d 868f 413d
000001e0: 07cd 38bd e970 993c 718a be3d 9af3 9fbc
000001f0: 32ea d6bd 4390 ff3d 8931 08be 37d8 493c
00000200: 5ff0 0bbe 6a15 6d3d 6e1c ac3d c4af aabd
00000210: 473d 61bd a5ba dd3d 65e8 babc 6899 e0bd
00000220: 9fdd 293c 0583 403c 116b 043e f884 9f3c
00000230: bf9b e53b bbeb 093d c038 a43d 11ef 9cbb
00000240: 0a17 f5bd fbf6 71be d4ff 67be cd12 73be
00000250: 7da9 7bbe 7366 b8be 75e7 67be 770f e5bd
00000260: 02ae 0ebe f042 5dbe 3c0f 98be f5d0 da3d
00000270: ee91 cabd 28b9 9ebe 4254 67be 0b12 bb3c
00000280: 3e03 383e 26ef 303c 013f dd3d 803e 793e
00000290: 4856 133e aa4f 75bd aa4f e63d 5015 7f3e
000002a0: fa63 f83d 9b70 3c3d 814c 9b3e 0acd da3e
000002b0: 5ab2 663e 59a4 953e b516 b53e 3359 bd3e
000002c0: cbd5 023e 6107 bdbc 5e5b fdbd d160 c7bd
000002d0: 726e a7bc b461 823d 8e03 7f3d fd4a cf3d
000002e0: 8a24 2b3d 1454 a23c 7234 f7bc 27dc 2d3e
000002f0: c1c5 1c3e 0763 63bc b511 0b3e 3f0b c53e
00000300: 50dc ddbc 88ca 283e 920b 743e bb62 4b3e
00000310: 1109 e23d 05f9 ea3d e974 0b3e 5c83 743e
00000320: 4b89 db3d 0962 0a3e 9822 f03d dd61 6f3e
00000330: aac3 f63d c49c 783e 209f 453e 19dd 2a3e
00000340: 2483 8cbe d7e7 87bd 6504 3f3d 608e 273d
00000350: 3eda 62bd 7c72 67be 68db dabd 1be4 5fbe
00000360: 5518 49be 4952 33be a051 76be 7bb0 57be
00000370: 77cb 82bd b80c 233c 1a0b 5ebe aaf3 21be
00000380: 2376 9a3d bb53 533d bed7 783d 5da5 a2bd
00000390: 12e2 3b3d c6a1 01be a1b8 8cbd 9154 a93d
000003a0: c8e2 e1bd 7116 bbbd d47a 89bd 550f 35be
000003b0: 8891 6cbd 1aad e43d cbdd 573d 77b4 523d
000003c0: 1bf1 f83d 9ba9 f73d 3f13 073e 1eaa 893e
000003d0: 900e 303e 431c 47be f8f9 25be 004f 463e
000003e0: 365c 413e 211c 42bd c4f9 213e 0302 96bc
000003f0: 03e9 4f3e ec3d da3d aa5f 21bd e1de b6bc

conv1.bias f4 [6]
1.1807592 0.033684302 -0.12590633 0.11943838 -0.14962661 -0.60790926
00000000: 1e23 973f 8df8 093d 97ed 00be 1c9c f43d
00000010: b837 19be f19f 1bbf

conv2.weight f4 [16, 6, 4, 4]
-0.37605646 -0.29438937 0.075842194 0.15226637 -0.219702 0.19412397 0.23494656 0.020321453
0.22044867 0.49064302 0.16029176 0.0604428 -0.010006092 -0.028995102 0.17729071 -0.20512016
0.020149156 -0.09940249 0.0035158754 -0.121859774 -0.023288602 -0.07423318 0.07636135 0.046323244
-0.014677688 -0.12412665 -0.08294577 0.021880245 -0.088098004 0.059878297 -0.06984534 -0.01130108
0.08148629 0.063157134 -0.101952404 0.034094468 -0.09378846 0.07209101 -0.03458276 -0.019496359
-0.089904696 0.081931464 0.0758691 -0.02398864 -0.007646493 -0.06381426 0.03246612 0.033828147
-0.081220955 -0.11053784 -0.01865539 0.03597718 -0.010260015 0.19152749 -0.13910611 0.011422791
0.05017206 0.11590458 -0.10488006 0.20366281 0.030783 -0.122457206 0.02376066 0.0787724
0.04256412 -0.08812575 -0.06716041 0.023184847 -0.005229541 0.007060521 -0.13128963 0.020586872
-0.11560373 -0.10301605 -0.1212752 -0.09556753 -0.08852434 -0.022149466 -0.02386047 -0.047822114
-0.23156545 -0.083690256 -0.029396743 0.0771312 0.0041095084 0.05011207 -0.15654461 -0.31848255
0.10042273 -0.14621784 -0.40131783 0.15367636 -0.16037552 -0.16435778 -0.12932059 0.14544092
0.003792742 0.01006097 -0.060299303 0.0665505 -0.035795044 0.06107625 -0.025652615 0.034759447
-0.03414207 -0.085549034 -0.013165281 0.02574887 -0.049904346 0.009983632 0.086221635 -0.035034247
-0.09565257 -0.10081113 -0.08191575 -0.083805956 -0.015979892 0.009738794 0.008572767 -0.03150585
0.033092394 0.07904757 0.100130156 0.09460917 0.0062340884 -0.06136954 0.03816536 0.09833707
0.08157106 -0.0009869909 0.026970128 0.008147949 0.059066918 0.04472679 -0.013580122 0.101912364
0.088167064 0.07182006 -0.043997478 -0.036806807 -0.02191381 0.022797715 -0.07770647 0.049087442
0.02617578 -0.06420042 -0.10085953 -0.065484166 -0.00526344 0.011311882 -0.015795842 -0.06329662
-0.04504014 -0.08522548 0.02199285 -0.097221166 -0.081573695 0.07921466 0.09422544 -0.07643915
-0.049199443 -0.07434617 -0.07267233 0.09520569 -0.028141882 -0.083860874 0.049071033 -0.024749538
-0.060001522 0.09726157 0.05109982 -0.087613866 -0.025789257 -0.074008375 -0.08963681 0.064677976
0.035794634 -0.056314312 -0.066874474 -0.06639355 -0.037035834 0.055239912 0.048278566 0.093797244
-0.0069888798 -0.031306196 -0.059807684 -0.09817604 -0.044284865 -0.038658675 0.05483717 -0.04668678
-0.05323149 0.39437214 -0.0036724363 0.04317762 -0.04894788 -0.09401187 -0.058868837 -0.14002338
-0.2639292 -0.11573721 -0.05485204 -0.19846883 -0.19514337 -0.044433735 -0.2079563 -0.2772652
-0.018850857 0.09537137 -0.008558574 -0.048687823 0.08007379 0.060585983 -0.014131329 0.049247794
0.083314225 -0.0628431 -0.044575 0.04312409 -0.083369404 0.051656257 -0.103090905 -0.05802571
-0.04147089 0.090629086 0.07702943 -0.038043488 0.006511332 -0.07258895 0.08882241 -0.07397536
-0.03693519 -0.079055466 0.021637198 -0.055828545 0.07334945 -0.028748905 -0.038071614 -0.045465738
-0.034239568 -0.083273254 -0.12879524 -0.31266582 -0.020954821 -0.17426255 -0.061461266 -0.08071284
0.19668084 -0.057035737 0.028235313 -0.024486652 0.07254834 0.08823133 0.06119655 0.03169323
00000000: 798a c0be 34ba 96be 2753 9b3d b7eb 1b3e
00000010: 90f9 60be 6fc8 463e d595 703e 2d79 a63c
00000020: 4cbd 613e 9035 fb3e 8623 243e df92 773d
00000030: 97f0 23bc 2387 edbc b28b 353e 050b 52be
00000040: d80f a53c 8893 cbbd 9a6a 663b 9e91 f9bd
00000050: bdc7 bebc 9107 98bd 5763 9c3d 71bd 3d3d
00000060: af7a 70bc 1d36 febd 79df a9bd 333e b33c
00000070: ba6c b4bd f242 753d 130b 8fbd 2a28 39bc
00000080: 49e2 a63d 8758 813d 6ccc d0bd a4a6 0b3d
00000090: 2a14 c0bd 74a4 933d a7a6 0dbd d4b6 9fbc
000000a0: f41f b8bd afcb a73d 4261 9b3d d383 c4bc
000000b0: 6f8f fabb 0db1 82bd 32fb 043d 628f 0a3d
000000c0: 2c57 a6bd aa61 e2bd 30d3 98bc cf5c 133d
000000d0: 9f19 28bc c81f 443e d571 0ebe a826 3b3c
000000e0: 3881 4d3d 615f ed3d 5bcb d6bd fc8c 503e
000000f0: a12c fc3c d8ca fabd b7a5 c23c 6d53 a13d
00000100: b757 2e3d 467b b4bd 668b 89bd 26ee bd3c
00000110: 925c abbb f15b e73b ca70 06be cda5 a83c
00000120: a6c1 ecbd 14fa d2bd 225f f8bd e9b8 c3bd
00000130: 404c b5bd cc72 b5bc 0877 c3bc 1fe1 43bd
00000140: 7e1f 6dbe cc65 abbd 70d1 f0bc f6f6 9d3d
00000150: 0ea9 863b 5042 4d3d 3b4d 20be 2510 a3be
00000160: 6faa cd3d 21ba 15be 8879 cdbe 565d 1d3e
00000170: 7b39 24be 684d 28be 9e6c 04be 77ee 143e
00000180: a78f 783b c4d6 243c 67fc 76bd a14b 883d
00000190: d39d 12bd 172b 7a3d 6f25 d2bc ec5f 0e3d
000001a0: 8ed8 0bbd 5534 afbd 31b3 57bc 4bef d23c
000001b0: 8068 4cbd 6392 233c f894 b03d 1280 0fbd
000001c0: 7fe5 c3bd 1176 cebd 72c3 a7bd 75a2 abbd
000001d0: 43e8 82bc 768f 1f3c ca74 0c3c 470c 01bd
000001e0: e48b 073d b1e3 a13d 0a11 cd3d 74c2 c13d
000001f0: 5347 cc3b a05e 7bbd 4853 1c3d f264 c93d
00000200: ba0e a73d eb5d 81ba 75f0 dc3c fa7e 053c
00000210: 27f0 713d 7033 373d 297f 5ebc 6eb7 d03d
00000220: ef90 b43d 6516 933d b336 34bd bcc2 16bd
00000230: 9784 b3bc 46c2 ba3c 9224 9fbd ea0f 493d
00000240: 976e d63c 837b 83bd 718f cebd 901c 86bd
00000250: ef78 acbb 7955 393c 4866 81bc a9a1 81bd
00000260: 037c 38bd b28a aebd 592a b43c e41b c7bd
00000270: 1c10 a7bd 4c3b a23d 44f9 c03d 218c 9cbd
00000280: 5b85 49bd ce42 98bd 3bd5 94bd 33fb c23d
00000290: ce89 e6bc 40bf abbd b5fe 483d 8bbf cabc
000002a0: 28c4 75bd 1331 c73d 0b4e 513d e66e b3bd
000002b0: fe43 d3bc b491 97bd 8193 b7bd e375 843d
000002c0: 659d 123d d6a9 66bd 7cf5 88bd 57f9 87bd
000002d0: e3b2 17bd 3f43 623d bfbf 453d c518 c03d
000002e0: f902 e5bb ed3a 00bd e7f8 74bd 8510 c9bd
000002f0: 0c64 35bd 8f58 1ebd f19c 603d a33a 3fbd
00000300: 4309 5abd 25eb c93e 42ad 70bb 04db 303d
00000310: 927d 48bd 4c89 c0bd 7320 71bd 4a62 0fbe
00000320: ba21 87be a107 edbd 88ac 60bd 6a3b 4bbe
00000330: aad3 47be 2600 36bd 7ff2 54be b4f5 8dbe
00000340: 1d6d 9abc 1152 c33d 4339 0cbc e26c 47bd
00000350: bafd a33d 0229 783d 1787 67bc 0eb8 493d
00000360: a6a0 aa3d e2b3 80bd 4694 36bd e3a2 303d
00000370: 94bd aabd 8395 533d 5321 d3bd 5eac 6dbd
00000380: 61dd 29bd be9b b93d 9bc1 9d3d 7dd3 1bbd
00000390: 035d d53b 84a9 94bd 86e8 b53d 6580 97bd
000003a0: 5b49 17bd d5e7 a1bd 7e40 b13c 79ac 64bd
000003b0: 3d38 963d d382 ebbc fbf0 1bbd 483a 3abd
000003c0: ca3e 0cbd 2b8b aabd e6e2 03be bc15 a0be
000003d0: 72a9 abbc e271 32be cfbe 7bbd c64c a5bd
000003e0: b466 493e 4e9e 69bd be4d e73c 3b98 c8bc
000003f0: 3994 943d a1b2 b43d 3ca9 7a3d c3d0 013d

conv2.bias f4 [16]
0.36577967 -0.0015446385 -0.16914138 -0.020193866 0.08295746 0.058810208 0.3498564 -0.38715535
-0.0037059109 0.3998228 -0.013667126 -0.007024814 -0.30801493 0.009235067 -0.07010438 -0.2984738
00000000: 7947 bb3e 7875 caba 6633 2dbe 9b6d a5bc
00000010: 9ae5 a93d f9e2 703d 6120 b33e 3a39 c6be
00000020: dede 72bb 93b5 cc3e 15ec 5fbc 6930 e6bb
00000030: 22b4 9dbe ae4e 173c e392 8fbd 8fd1 98be

fc1.weight f4 [120, 64]
0.00024549087 0.09439474 0.0986953 -0.012060111 -0.123442024 -0.039196882 0.106866926 0.0356589
0.09814504 -0.053012393 0.09771932 -0.07242829 0.07184419 0.07814996 -0.0394512 -0.04451474
-0.060419053 0.0027999394 0.025710134 -0.064221166 -0.040570397 0.11356467 -0.10361502 0.0039964784
-0.013530224 0.02249474 0.043347575 0.08108366 0.07785665 0.08967359 0.09865657 -0.11476104
0.16436516 0.07858918 -0.069084816 -0.10410501 -0.048433747 0.010034395 0.046742857 -0.081382036
0.050243367 0.0687927 -0.119204804 0.01448551 0.11860696 -0.053789116 -0.047594234 0.0956029
0.00893228 -0.05752838 -0.13731097 0.01287824 0.104902305 -0.058492403 0.062662855 -0.10664047
0.0032793551 0.08356159 -0.15056296 -0.086673826 0.060003582 0.10526537 -0.03405571 -0.15652579
0.102737635 0.039913613 0.028048238 -0.070619725 0.045017812 0.0064374795 0.012749595 -0.022571912
-0.02953362 0.0154298805 -0.019074768 -0.09584149 -0.05255127 0.09756474 0.034888685 0.12277421
-0.039394874 0.08975107 0.06780616 0.06780419 0.03126045 -0.0024067552 -0.09386442 0.06788576
0.12625112 -0.09859422 -0.119222924 0.13333677 -0.010224085 -0.06078262 -0.0028732854 0.015582007
-0.11076732 -0.024168897 -0.046736125 -0.10510021 -0.076394975 0.08619766 -0.084851466 0.037781216
-0.0057802103 -0.0027776866 -0.05039168 -0.094790444 0.045265008 0.07401378 -0.090138726 -0.08814894
0.049805947 -0.014914126 0.10461576 -0.0632942 0.08124345 -0.09461273 0.12152259 0.05279888
0.088379785 0.07510666 -0.11175143 -0.08320198 0.02712153 0.039645948 0.032560166 -0.08014771
-0.011963543 0.038387083 0.05668734 0.061014615 0.07118861 0.019096205 -0.033317145 0.11448931
0.11498166 -0.008285409 0.11132417 -0.07599443 -0.010638733 -0.036197886 0.10390534 -0.03890716
-0.107171506 -0.07436135 0.16789733 0.025570666 0.099889375 0.055671446 -0.032441624 0.10367955
-0.28346857 -0.1444452 0.031147331 -0.110592626 -0.10193688 0.07819968 0.11062474 0.020130986
-0.00997461 0.11686815 0.015001556 -0.013695148 0.01748503 -0.04557892 -0.033064574 -0.06912314
-0.040154893 -0.0080267 0.018358162 -0.039395105 0.042277362 -0.046106488 -0.030096475 -0.07009388
0.08381442 0.013309597 0.12950586 -0.0024715688 -0.07037104 -0.031146279 -0.061461177 -0.021029998
0.038396988 0.03706585 -0.04721392 0.08485114 0.13706602 0.13840975 0.0024970402 0.12485662
0.069663085 0.02954932 -0.038531095 0.021499839 0.013026693 -0.10775369 -0.09306017 -0.120071046
-0.022584053 -0.023581252 0.089640856 0.1744297 -0.121708706 0.04103892 0.0015432202 0.08201611
-0.023096014 0.058524225 -0.073466934 -0.13681644 0.037327494 0.093003035 -0.049670465 -0.0059369253
-0.00018594561 0.031933747 -0.064955376 0.04441017 -0.018019939 -0.23077308 0.015293566 0.016462494
0.17596027 -0.1722095 0.030823968 -0.10683094 0.102333 0.029087735 0.012546235 -0.20283754
-0.1406244 0.003012688 0.11336674 0.074080095 -0.104833335 -0.032011982 -0.102370106 -0.07809034
0.050844125 -0.14563851 0.09205138 0.17039928 0.056330785 -0.06220828 -0.11371475 -0.013539847
-0.033583943 0.089757025 -0.10968213 -0.09896874 0.071021385 0.14376095 -0.02085505 -0.1564961
00000000: 3ab5 8039 0852 c13d c320 ca3d c697 45bc
00000010: 2ccf fcbd e98c 20bd 0cdd da3d 110f 123d
00000020: 4400 c93d 8623 59bd 1121 c83d 4955 94bd
00000030: 0c23 933d 160d a03d 9597 21bd 1755 36bd
00000040: f879 77bd 307f 373b 0f9e d23c 6386 83bd
00000050: 252d 26bd 9894 e83d 1d34 d4bd e4f4 823b
00000060: dfad 5dbc e446 b83c 3a8d 313d 310f a63d
00000070: 4f73 9f3d caa6 b73d 750c ca3d d607 ebbd
00000080: 574f 283e 5df3 a03d 577c 8dbd 0235 d5bd
00000090: 7762 46bd 4e67 243c 7075 3f3d a0ab a6bd
000000a0: fdcb 4d3d 30e3 8c3d a621 f4bd a254 6d3c
000000b0: 35e8 f23d fa51 5cbd 2cf2 42bd 74cb c33d
000000c0: b358 123c e1a2 6bbd 3f9b 0cbe 41ff 523c
000000d0: 05d7 d63d bb95 6fbd 6255 803d 5266 dabd
000000e0: 73ea 563b 5722 ab3d 2d2d 1abe 0c82 b1bd
000000f0: 51c6 753d 5f95 d73d 007e 0bbd 4c48 20be
00000100: 1c68 d23d 757c 233d 6bc5 e53c 13a1 90bd
00000110: 9964 383d 7ef1 d23b ade3 503c bbe8 b8bc
00000120: 7ef0 f1bc 9ccd 7c3c b042 9cbc 8b48 c4bd
00000130: 0040 57bd 06d0 c73d 70e7 0e3d 0c71 fb3d
00000140: 855c 21bd 69cf b73d f5dd 8a3d ecdc 8a3d
00000150: f50a 003d a7ba 1dbb fd3b c0bd b007 8b3d
00000160: f947 013e c4eb c9bd 262b f4bd 6f89 083e
00000170: ec82 27bc 32f7 78bd bb4d 3cbb ad4b 7f3c
00000180: fad9 e2bd dafd c5bc 616e 3fbd c73e d7bd
00000190: f874 9cbd 6688 b03d 9bc6 adbd 7ac0 1a3d
000001a0: eb67 bdbb d909 36bb 8267 4ebd 7e21 c2bd
000001b0: cd67 393d 8994 973d a79a b8bd 6e87 b4bd
000001c0: 5201 4c3d 615a 74bc ca40 d63d 64a0 81bd
000001d0: f762 a63d 52c4 c1bd d6e0 f83d a343 583d
000001e0: 7600 b53d 85d1 993d efdd e4bd cd65 aabd
000001f0: f92d de3c ca63 223d cf5d 053d 7c24 a4bd
00000200: bc02 44bc c63b 1d3d fc30 683d 76ea 793d
00000210: 55cb 913d a56f 9c3c 8f77 08bd 5f79 ea3d
00000220: 817b eb3d 86bf 07bc edfd e33d f8a2 9bbd
00000230: 154e 2ebc 3c44 14bd 53cc d43d 1d5d 1fbd
00000240: bc7c dbbd c34a 98bd 47ed 2b3e 9379 d13c
00000250: cd92 cc3d be07 643d 82e1 04bd f255 d43d
00000260: cb22 91be 71e9 13be b028 ff3c 637e e2bd
00000270: 48c4 d0bd 2727 a03d 398f e23d bde9 a43c
00000280: 8c6c 23bc 9258 ef3d 16c9 753c 9d61 60bc
00000290: c43c 8f3c f6b0 3abd b86e 07bd 6f90 8dbd
000002a0: 7579 24bd 6b82 03bc db63 963c c35c 21bd
000002b0: 072b 2d3d 28da 3cbd e28c f6bc 618d 8fbd
000002c0: e5a6 ab3d 7f10 5a3c 2f9d 043e 0bfa 21bb
000002d0: b11e 90bd 7b26 ffbc b7be 7bbd 1a47 acbc
000002e0: 2946 1d3d 5cd2 173d 6263 41bd 6fc6 ad3d
000002f0: 095b 0c3e 49bb 0d3e 62a5 233b d4b4 ff3d
00000300: 85ab 8e3d 6a11 f23c c8d2 1dbd 6e20 b03c
00000310: e96d 553c f7ad dcbd 5596 bebd cfe7 f5bd
00000320: 3102 b9bc 782d c1bc a095 b73d b39d 323e
00000330: 6a42 f9bd 6d18 283d e145 ca3a 10f8 a73d
00000340: da33 bdbc 19b7 6f3d d575 96bd 9c19 0cbe
00000350: b7e4 183d 6078 be3d 4273 4bbd 8a8a c2bb
00000360: 65fa 42b9 f6cc 023d 5307 85bd 70e7 353d
00000370: 8d9e 93bc c74f 6cbe dd91 7a3c 5adc 863c
00000380: ee2e 343e b057 30be 8c82 fc3c 2eca dabd
00000390: f793 d13d 6749 ee3c b98e 4d3c a5b4 4fbe
000003a0: d8ff 0fbe 8470 453b d22c e83d 4eb7 973d
000003b0: dcb2 d6bd ff1e 03bd 6ba7 d1bd d4ed 9fbd
000003c0: ee41 503d 4322 15be 6f85 bc3d 267d 2e3e
000003d0: 1cbb 663d 1cce 7ebd 47e3 e8bd 3cd6 5dbc
000003e0: 518f 09bd 88d2 b73d 06a1 e0bd 1fb0 cabd
000003f0: a973 913d 1236 133e 36d8 aabc 8340 20be

fc1.bias f4 [120]
-0.0564127 0.14854236 -0.053280372 0.03719214 0.09666296 0.04041786 0.067788154 -0.05070386
-0.11132831 0.046867914 0.10150445 0.09163043 0.15827546 -0.047963705 0.08041161 0.05121805
-0.08089506 0.0823023 -0.033322085 0.124028325 0.13431436 -0.06761741 0.077111 0.08025909
-0.08077059 0.01548167 -0.055186823 0.047750723 -0.041796472 0.012270657 -0.0037023565 0.112288855
-0.13150197 0.17186597 -0.060714714 0.07980201 0.0896402 0.11256245 0.16277137 -0.08974455
0.009514146 0.14466171 0.07236669 -0.06973185 -0.095105074 0.052256837 -0.059872136 -0.04834184
-0.071976155 0.038380954 -0.05307915 -0.11783751 0.09780542 -0.055413976 0.10519986 0.04399109
-0.013281549 -0.08110671 -0.082476124 -0.08347941 -0.09701976 -0.061947815 0.044438664 0.04630133
0.008300643 -0.0025112957 0.1563014 -0.0039482852 0.013503808 -0.0068472796 0.13446553 0.002185176
-0.02104074 0.10111243 0.017846668 0.13168798 0.048702512 0.1402 -0.07205849 0.09116142
0.07139267 -0.06920849 -0.06335037 -0.03723986 -0.010614905 -0.039303776 0.035668097 -0.026885308
-0.06737316 0.13232668 -0.0119995 -0.01303232 -0.012633043 -0.056966595 -0.04973862 -0.09892599
0.037192132 0.05359222 0.03154439 -0.09574921 0.1529456 -0.03327451 -0.061902527 -0.11383999
0.110576734 0.019244755 0.0990327 -0.12398342 0.17901246 0.0020352148 0.08815358 -0.090833835
0.14313771 0.051494252 0.13145977 -0.0054305946 0.18960446 0.0019968506 0.1057072 -0.09123272
00000000: 0111 67bd 7d1b 183e 853c 5abd c956 183d
00000010: 3bf7 c53d 338d 253d 84d4 8a3d daae 4fbd
00000020: 1900 e4bd 92f8 3f3d 91e1 cf3d bca8 bb3d
00000030: f612 223e 9775 44bd d8ae a43d 05ca 513d
00000040: 4fac a5bd 1c8e a83d bd7c 08bd 9002 fe3d
00000050: b489 093e ff7a 8abd 5fec 9d3d e15e a43d
00000060: 0d6b a5bd d5a6 7d3c 940b 62bd 4396 433d
00000070: c732 2bbd de0a 493c 3ca3 72bb b3f7 e53d
00000080: 74a8 06be a2fd 2f3e feaf 78bd 3c6f a33d
00000090: 4895 b73d 2487 e63d 8aad 263e fecb b7bd
000000a0: 38e1 1b3c 3322 143e fd34 943d 92cf 8ebd
000000b0: 73c6 c2bd 440b 563d 7c3c 75bd 1802 46bd
000000c0: 3c68 93bd 5935 1d3d 8669 59bd cb54 f1bd
000000d0: 354e c83d c4f9 62bd 0673 d73d 0030 343d
000000e0: db9a 59bc 461b a6bd 3ee9 a8bd 41f7 aabd
000000f0: 4cb2 c6bd febc 7dbd 5105 363d 77a6 3d3d
00000100: 6cff 073c 8d94 24bb 790d 203e 9e60 81bb
00000110: 133f 5d3c 255f e0bb 55b1 093e 2b35 0f3b
00000120: a15d acbc 0914 cf3d 2d33 923c 37d9 063e
00000130: 497c 473d 9790 0f3e 6793 93bd d7b2 ba3d
00000140: 5236 923d 2ebd 8dbd d7bd 81bd d388 18bd
00000150: 23ea 2dbc fffc 20bd b618 123d 943e dcbc
00000160: f0fa 89bd a580 073e 8d99 44bc 8385 55bc
00000170: d3fa 4ebc ce55 69bd b9ba 4bbd b699 cabd
00000180: c756 183d 8483 5b3d b134 013d 2918 c4bd
00000190: c59d 1c3e da4a 08bd 818d 7dbd f124 e9bd
000001a0: 0e76 e23d 2da7 9d3c a8d1 ca3d 05eb fdbd
000001b0: 0b4f 373e 3d61 053b dd89 b43d 1707 babd
000001c0: b192 123e a3eb 523d 649d 063e 21f3 b1bb
000001d0: ac27 423e 98dd 023b 047d d83d 38d8 babd

fc2.weight f4 [84, 120]
0.0986318 0.016739571 0.014077466 -0.011850762 -0.03113322 0.08750356 0.07130956 -0.06613773
-0.021487683 0.01129575 0.04535154 -0.081388064 -0.057290997 0.15340707 0.03737443 0.07507868
-0.10574424 0.07379684 0.018466253 0.057846718 0.090819344 -0.022903906 0.027611291 0.09580608
0.004738174 0.03187697 -0.016229525 0.019682936 -0.06167561 -0.026573122 -0.044621248 0.067422226
0.06353042 0.06592604 0.09785126 0.05932227 -0.030209726 0.00094062014 0.07644817 0.081613265
0.029464232 -0.02630891 0.048703823 -0.09941603 0.038554803 -0.058221858 0.005057639 0.10876269
0.08610081 0.045670185 0.06337565 0.14492561 0.02472815 0.047782764 0.061971035 -0.082200386
-0.06813016 -0.06935967 -0.07826163 -0.05942863 -0.070517056 0.11320041 0.08944243 -0.038356498
-0.11945852 -0.05241186 0.09853041 0.06688214 0.04967417 -0.021696448 0.03608547 0.031835105
-0.04855675 0.023320068 -0.010904357 -0.06492479 0.06823778 -0.033825733 0.010083705 -0.00783247
0.08143048 0.029509582 -0.001728663 -0.051961005 -0.044826128 0.09459266 -0.08639639 -0.10021742
0.055085335 0.0664319 0.06886034 -0.06748328 -0.043106467 -0.05106414 0.0503544 -0.066081
-0.05616417 0.08480142 -0.04381212 0.076588534 -0.009965081 -0.038751364 0.11066906 -0.06329176
-0.07052783 0.0506026 0.06245308 -0.034496512 0.108341835 -0.06452181 0.056256868 0.07263656
0.085276574 0.005757791 0.023428153 -0.04160545 -0.06882877 0.04218517 -0.07722149 -0.016152328
-0.07185283 0.018288493 0.034378618 -0.034308154 -0.02945135 0.075729996 -0.08522026 0.05650231
-0.066546105 -0.015990878 -0.035055913 0.08390303 0.043480985 -0.04723585 0.0832723 0.04316379
0.071271054 -0.024477025 0.048039168 0.017786995 -0.08772277 -0.0688444 -0.059899997 -0.005808008
0.0884289 -0.033437625 -0.08000965 -0.06393202 0.08502954 -0.047254268 -0.009377136 -0.05270034
-0.007738711 0.004857963 -0.051142283 0.017853146 0.011377857 -0.057999644 0.08354552 0.08842532
-0.009968691 0.076937675 -0.025866823 0.05965701 -0.008671959 0.05578116 -0.015063803 -0.01133418
-0.051434126 0.0074711232 -0.0122823175 -0.07626573 -0.06327323 -0.056791123 -0.022447793 0.044420335
-0.013074169 0.038696896 -0.06617821 0.08077035 0.07432924 0.08621732 -0.04429956 0.06946828
-0.06700637 -0.0062603955 -0.03509292 0.049671337 0.027311118 0.079473846 -0.08405669 -0.017396864
-0.0037887057 -0.054482855 -0.023233173 0.016465243 0.089141026 0.06799498 -0.0032154133 0.03263454
-0.053665973 -0.036276076 -0.07334113 -0.03654275 -0.0008016742 0.06805198 0.045967925 -0.08910026
0.040759824 -0.045672752 0.039819464 0.074964695 -0.03061155 0.052266058 -0.07792479 0.015841365
0.009309391 -0.0013738129 -0.03103955 -0.05873904 -0.051455334 0.04192164 0.027979147 -0.044834647
-0.08357325 -0.033263423 -0.045435324 -0.05770171 0.0010317435 0.08604246 0.030954715 -0.058674715
-0.011834253 -0.06878579 0.018861394 0.04680401 -0.067464985 -0.031454694 -0.0020193176 -0.026907634
0.07598371 -0.032895017 -0.024991436 -0.08899094 -0.0045535085 0.07593573 -0.022034831 -0.017775564
0.079179145 0.002995113 -0.01423957 0.08083466 -0.0812784 0.015573695 -0.05267896 -0.03422657
00000000: 78ff c93d 6d21 893c 2ca5 663c b329 42bc
00000010: 180b ffbc 1135 b33d bf0a 923d 3873 87bd
00000020: f006 b0bc cf11 393c 89c2 393d c9ae a6bd
00000030: f7a9 6abd be16 1d3e ee15 193d dac2 993d
00000040: 7090 d8bd cc22 973d 8a46 973c aef0 6c3d
00000050: 7eff b93d f9a0 bbbc 1331 e23c fa35 c43d
00000060: af42 9b3b 6d91 023d c8f3 84bc 1c3e a13c
00000070: 909f 7cbd e0af d9bc c5c4 36bd aa14 8a3d
00000080: 3d1c 823d 3b04 873d 3e66 c83d e9fb 723d
00000090: 637a f7bc f393 763a dc90 9c3d db24 a73d
000000a0: f95e f13c c985 d7bc a97d 473d a29a cbbd
000000b0: a4eb 1d3d 0b7a 6ebd 8dba a53b f9be de3d
000000c0: 9f55 b03d a910 3b3d 18cb 813d 6167 143e
000000d0: b092 ca3c dcb7 433d 57d5 7d3d ad58 a8bd
000000e0: d387 8bbd 710c 8ebd a247 a0bd 6f6b 73bd
000000f0: 3f6b 90bd 9ed5 e73d 982d b73d b41b 1dbd
00000100: aba6 f4bd d2ad 56bd 50ca c93d 81f9 883d
00000110: 2477 4b3d c0bc b1bc 5cce 133d 8765 023d
00000120: 71e3 46bd ba09 bf3c 30a8 32bc 4af7 84bd
00000130: 40c0 8b3d da8c 0abd 2036 253c c353 00bc
00000140: 06c5 a63d 14be f13c 4e94 e2ba 10d5 54bd
00000150: 9a9b 37bd ccb9 c13d 97f0 b0bd ca3e cdbd
00000160: 29a1 613d 730d 883d a606 8d3d ad34 8abd
00000170: 6890 30bd a228 51bd 6a40 4e3d 7a55 87bd
00000180: 670c 66bd 5eac ad3d 5674 33bd 73da 9c3d
00000190: 9444 23bc c0b9 1ebd 76a6 e23d 1c9f 81bd
000001a0: e570 90bd ac44 4f3d cdce 7f3d 374c 0dbd
000001b0: 53e2 dd3d 0324 84bd 9a6d 663d 7ac2 943d
000001c0: 7ca5 ae3d daab bc3b 66ec bf3c 7a6a 2abd
000001d0: 19f6 8cbd 5bca 2c3d 4d26 9ebd e351 84bc
000001e0: 9427 93bd c0d1 953c 98d0 0c3d b586 0cbd
000001f0: f543 f1bc 5418 9b3d f687 aebd f76e 673d
00000200: 5349 88bd 4dff 82bc ca96 0fbd 5ad5 ab3d
00000210: 1e19 323d 617a 41bd ab8a aa3d 84cc 303d
00000220: 8ff6 913d 0b84 c8bc b8c4 443d 08b6 913c
00000230: ffa7 b3bd 4bfe 8cbd b359 75bd 1a51 bebb
00000240: 361a b53d e4f5 08bd 19dc a3bd caee 82bd
00000250: f823 ae3d b18d 41bd 8fa2 19bc 50dc 57bd
00000260: 0395 fdbb 8c2f 9f3b 927a 51bd c340 923c
00000270: 316a 3a3c 0991 6dbd ea19 ab3d 5618 b53d
00000280: b853 23bc 8091 9d3d a9e6 d3bc e95a 743d
00000290: d514 0ebc c97a 643d 2bce 76bc ffb2 39bc
000002a0: 97ac 52bd 53d0 f43b c63b 49bc 3531 9cbd
000002b0: 6595 81bd cf9d 68bd 6fe4 b7bc 19f2 353d
000002c0: 0a35 56bc a380 1e3d 7188 87bd ed6a a53d
000002d0: ee39 983d b592 b03d 7573 35bd 6345 8e3d
000002e0: a33a 89bd 0124 cdbb 98bd 0fbd 2c74 4b3d
000002f0: 91bb df3c 2fc3 a23d ea25 acbd de83 8ebc
00000300: ef4b 78bb 6a29 5fbd 7f53 bebc 1ee2 863c
00000310: 928f b63d f440 8b3d afb9 52bb ccab 053d
00000320: dad0 5bbd 3996 14bd e033 96bd daad 15bd
00000330: 7227 52ba d65e 8b3d dd48 3c3d 327a b6bd
00000340: c6f3 263d 5a13 3bbd bc19 233d 1787 993d
00000350: 13c5 fabc ef14 563d 0897 9fbd c0c5 813c
00000360: 6a86 183c 8311 b4ba a846 febc 5998 70bd
00000370: d4c2 52bd 07b6 2b3d 8634 e53c 89a4 37bd
00000380: 7428 abbd 3a3f 08bd 641a 3abd a158 6cbd
00000390: 913b 873a 0737 b03d be94 fd3c e654 70bd
000003a0: 74e4 41bc 90df 8cbd 3683 9a3c 90b5 3f3d
000003b0: 152b 8abd a3d6 00bd 8756 04bb 666d dcbc
000003c0: 599d 9b3d edbc 06bd d7ba ccbc e240 b6bd
000003d0: 9935 95bb 3184 9b3d 6482 b4bc 0f9e 91bc
000003e0: ad28 a23d a849 443b 164d 69bc a48c a53d
000003f0: 4a75 a6bd d028 7f3c e5c5 57bd 2931 0cbd

fc2.bias f4 [84]
0.082517825 -0.063595355 -0.0021528848 -0.045763772 0.035733316 0.0025152739 -0.07511193 0.07855619
0.013359198 0.24004091 0.23035689 0.055873085 -0.00925637 0.068123564 -0.07581129 0.1401767
0.06417864 -0.07830218 -0.035522316 -0.0020612862 0.26762462 -0.0908089 -0.015597534 -0.08190719
-0.036917325 0.08042148 0.092912726 -0.048969474 0.20198217 0.028493006 -0.00070790283 0.05168876
0.038261842 0.14258005 0.017129619 0.07135947 0.036525365 0.06306723 0.2045124 -0.018399931
-0.08739527 -0.061271343 0.13977975 -0.024272436 -0.02251258 0.026695214 -0.043435782 0.10807617
0.09891901 -0.005156122 -0.0045491126 -0.026526734 0.012571899 0.14122018 0.059522197 -0.08693457
-0.00037714557 -0.034039658 -0.008608056 0.11395136 0.094301924 0.16879821 -0.009990004 -0.011059982
0.12985799 0.057858545 0.06485828 0.04082762 -0.081055775 -0.0052406285 -0.04798048 -0.045635022
-0.068137474 0.08269952 0.0592169 0.055806126 0.020838939 -0.071136676 -0.086702496 0.05598463
0.121165425 0.024020309 -0.08875579 -0.014648077
00000000: 1bff a83d 483e 82bd 6a17 0dbb cb72 3bbd
00000010: 195d 123d 4bd7 243b 49d4 99bd 11e2 a03d
00000020: 8ae0 5a3c 49cd 753e ade2 6b3e 2ddb 643d
00000030: 08a8 17bc 5e84 8b3d f342 9bbd 7b8a 0f3e
00000040: 1770 833d e55c a0bd d97f 11bd a516 07bb
00000050: 1806 893e 04fa b9bd cd8c 7fbc f5be a7bd
00000060: 9f36 17bd 04b4 a43d 0749 be3d 3794 48bd
00000070: 6ad4 4e3e 2a6a e93c 8e92 39ba 98b7 533d
00000080: 73b8 1c3d 8100 123e 6a53 8c3c ea24 923d
00000090: 9f9b 153d 6429 813d b36b 513e 74bb 96bc
000000a0: 4bfc b2bd a9f7 7abd 6c22 0f3e fdd6 c6bc
000000b0: 4d6c b8bc ecaf da3c b8e9 31bd 0a57 dd3d
000000c0: 0d96 ca3d b0f4 a8bb b910 95bb 984e d9bc
000000d0: 5efa 4d3c 069c 103e 8ccd 733d c00a b2bd
000000e0: 9fbb c5b9 2b6d 0bbd ce08 0dbc 555f e93d
000000f0: 5e21 c13d 70d9 2c3e 1dad 23bc ed34 35bc
00000100: 7ef9 043e 15fd 6c3d 6bd4 843d dd3a 273d
00000110: 9200 a6bd 94b9 abbb 2e87 44bd caeb 3abd
00000120: a98b 8bbd 5e5e a93d 6c8d 723d f794 643d
00000130: 6cb6 aa3c 1bb0 91bd 1491 b1bd 2450 653d
00000140: 9425 f83d 3dc6 c43c 98c5 b5bd 7dfe 6fbc

fc3.weight f4 [10, 84]
0.28694883 -0.01534933 -0.10415173 -0.06955749 0.083340265 -0.0065037734 0.41929993 -0.16201267
0.015589625 0.36986253 -0.46396825 0.2058775 -0.1471583 0.073990725 -0.0281012 0.03296993
0.47300386 0.051587775 0.18128999 0.15800089 -0.24820168 0.10307974 0.10751706 -0.022088641
0.035370752 0.052904148 0.029147798 0.02952128 -0.17274673 0.4482825 0.217353 0.024034396
0.07123287 0.29017022 -0.049715437 0.37409765 -0.05058221 -0.16022047 0.51155823 0.042499088
0.07535309 0.060564935 -0.12459363 0.002912949 -0.08526245 0.013482818 -0.10244295 0.034875087
-0.06620779 -0.16310567 0.022840137 0.09255006 -0.05717108 -0.007683331 -0.26135147 0.0627778
0.008490749 -0.067711994 0.09943747 0.08921514 0.22881031 -0.0760229 0.078765556 0.19062944
-0.21826501 0.041290972 0.01754696 -0.079973266 -0.043517042 0.115733296 -0.053266067 -0.02513634
0.09796335 0.08678491 -0.070896044 -0.21383798 -0.10529045 -0.015925212 0.024085851 -0.0461615
0.15189481 0.0676412 0.053538475 0.08453697 0.1673356 0.025896782 -0.045663342 0.21377549
-0.17883551 0.046041276 0.24798234 -0.0570147 -0.04690275 0.027894441 -0.2555333 -0.06560055
0.21266687 0.043069433 0.0056250505 -0.008619979 -0.008213607 -0.0019429732 0.05923978 0.28445503
-0.16801633 0.04336362 0.013472994 -0.08506677 0.242542 -0.23322368 -0.20337926 0.047858644
-0.120330125 0.120354086 0.026378514 0.1857998 -0.09162253 0.06629994 -0.114439 0.01647408
-0.090464115 0.012969705 -0.14632995 -0.022965567 -0.02060731 0.04408195 -0.13086215 0.0104905795
0.10908254 -0.06463267 0.09273537 -0.2251179 0.15968381 -0.13990435 0.024857057 -0.07161714
0.02041712 -0.17630506 -0.12548919 0.0054255007 -0.0671734 0.08062445 0.0857078 -0.16763084
-0.16431144 -0.23773746 0.09811979 0.13134731 -0.0636339 0.14754914 -0.008344293 -0.08107637
-0.023370674 0.018159522 -0.1000797 0.10379809 0.32928562 -0.15059221 0.21714336 -0.066969305
0.04837275 -0.04405662 0.099509634 -0.09768901 -0.13810638 0.044050634 0.02176489 -0.10352456
0.14565438 -0.053313725 -0.03739559 0.04627603 -0.12232838 -0.06440191 0.07087713 0.09429783
0.071326815 0.0655388 -0.082267575 -0.021057151 0.1249858 -0.060266163 -0.11442477 0.077662684
-0.09277133 0.029576711 0.015347912 0.30754948 0.038939208 0.07051531 0.07745208 -0.06439372
-0.053350426 -0.25413316 -0.18776728 -0.043978576 0.10130773 0.06961743 -0.063188374 0.0027034315
-0.09428121 0.17901103 -0.053478878 0.036409725 -0.024634615 -0.15377115 -0.10870897 0.01599553
-0.08862658 -0.063035525 -0.0116331875 0.013451946 0.09969249 -0.09611536 -0.03946808 -0.1410758
0.38718146 -0.117709205 -0.080584094 0.062644936 0.015317006 -0.02251581 -0.08570587 -0.06655418
0.07974942 -0.05535314 0.092702515 -0.10441124 -0.031634126 0.0033703675 -0.0437748 -0.005955215
-0.0065258094 0.10101023 -0.07238323 0.025359929 0.069869265 -0.08894368 0.03737629 0.062504254
0.16971931 -0.041507103 0.08911719 0.12390086 0.037806198 -0.04402718 0.071531534 -0.08414099
-0.07435937 -0.07950834 -0.06406723 0.037087798 0.005157699 -0.023600915 -0.05980371 -0.06201444
00000000: f5ea 923e c27b 7bbc 814d d5bd 2874 8ebd
00000010: 4dae aa3d 9b1d d5bb 7bae d63e a6e6 25be
00000020: a06b 7f3c 9f5e bd3e 3f8d edbe 8dd1 523e
00000030: aab0 16be 7388 973d 7d34 e6bc 7a0b 073d
00000040: 902d f23e b44d 533d 15a4 393e fcca 213e
00000050: 9528 7ebe 791b d33d e831 dc3d 3df3 b4bc
00000060: ece0 103d 05b2 583d 5dc7 ee3c 9dd6 f13c
00000070: 85e4 30be 4985 e53e c991 5e3e c8e3 c43c
00000080: 8ae2 913d 3191 943e 6aa2 4bbd ba89 bf3e
00000090: 4b2f 4fbd d610 24be 7bf5 023f 8613 2e3d
000000a0: b952 9a3d f012 783d f22a ffbd 2de7 3e3b
000000b0: 149e aebd 0ae7 5c3c 9ccd d1bd 2ed9 0e3d
000000c0: f397 87bd 2c05 27be 3d1b bb3c e38a bd3d
000000d0: 392c 6abd 74c4 fbbb dccf 85be a691 803d
000000e0: c81c 0b3c 96ac 8abd dfa5 cb3d 6db6 b63d
000000f0: 404d 6a3e e5b1 9bbd d64f a13d 5d34 433e
00000100: dd80 5fbe b920 293d a4be 8f3c 06c9 a3bd
00000110: ed3e 32bd 9405 ed3d 852d 5abd baea cdbc
00000120: 02a1 c83d 49bc b13d f231 91bd 58f8 5abe
00000130: 85a2 d7bd 9775 82bc b14f c53c d713 3dbd
00000140: 508a 1b3e 7887 8a3d 294b 5b3d b821 ad3d
00000150: 065a 2b3e 7d25 d43c 7c09 3bbd f6e7 5a3e
00000160: a820 37be c795 3c3d 15ef 7d3e 3f88 69bd
00000170: 191d 40bd e282 e43c 43d5 82be 9559 86bd
00000180: 58c5 593e 9369 303d 5852 b83b d03a 0dbc
00000190: 5d92 06bc 5dab feba 69a5 723d 17a4 913e
000001a0: 790c 2cbe 0d9e 313d d5bd 5c3c 7d37 aebd
000001b0: ee5c 783e 30d2 6ebe a742 50be 6d07 443d
000001c0: a46f f6bd 347c f63d c117 d83c 4e42 3e3e
000001d0: 98a4 bbbd 43c8 873d ff5e eabd a6f4 863c
000001e0: 4045 b9bd e37e 543c 85d7 15be 4922 bcbc
000001f0: a9d0 a8bc 468f 343d ba00 06be aee0 2b3c
00000200: ab66 df3d 225e 84bd 0bec bd3d 4f85 66be
00000210: 2784 233e 1643 0fbe 07a1 cb3c 02ac 92bd
00000220: ce41 a73c 5089 34be 3d80 00be 66c8 b13b
00000230: 3592 89bd 6f1e a53d 9287 af3d 6ba7 2bbe
00000240: 4241 28be 7371 73be 07f3 c83d e97f 063e
00000250: 7d52 82bd 1f17 173e 80b6 08bc 5e0b a6bd
00000260: db73 bfbc 47c3 943c 96f6 ccbd 1894 d43d
00000270: 2098 a83e d834 1abe d45a 5e3e 3427 89bd
00000280: 8122 463d b774 34bd b5cb cb3d 2d11 c8bd
00000290: c26b 0dbe 706e 343d 484c b23c af04 d4bd
000002a0: 6c26 153e 7e5f 5abd 1e2c 19bd ef8b 3d3d
000002b0: 4d87 fabd 26e5 83bd 0728 913d 381f c13d
000002c0: cb13 923d 3539 863d e77b a8bd 0c80 acbc
000002d0: 8ef8 ff3d a7d9 76bd 8957 eabd 9d0d 9f3d
000002e0: e5fe bdbd dc4a f23c cf75 7b3c 2077 9d3e
000002f0: b87e 1f3d 556a 903d 329f 9e3d dbe0 83bd
00000300: fa85 5abd be1d 82be 1146 40be e122 34bd
00000310: 6d7a cf3d 9593 8e3d e868 81bd 0e2c 313b
00000320: 8216 c1bd ab4e 373e ab0c 5bbd 5d22 153d
00000330: 88ce c9bc 2f76 1dbe cfa2 debd 0f09 833c
00000340: da81 b5bd c518 81bd 2099 3ebc 8d65 5c3c
00000350: 942b cc3d 21d8 c4bd 48a9 21bd 2d76 10be
00000360: a63c c63e 8611 f1bd 4609 a5bd fd4b 803d
00000370: 2ef4 7a3c 1373 b8bc 8f86 afbd 8f4d 88bd
00000380: aa53 a33d f9b9 62bd d1da bd3d 8fd5 d5bd
00000390: c992 01bd 62e1 5c3b 344d 33bd f723 c3bb
000003a0: 75d6 d5bb 74de ce3d a93d 94bd a0bf cf3c
000003b0: 9e17 8f3d 1b28 b6bd e117 193d 3b02 803d
000003c0: e6ca 2d3e 5a03 2abd 1383 b63d bcbf fd3d
000003d0: acda 1a3d d855 34bd 207f 923d 1d52 acbd
000003e0: ba49 98bd 45d5 a2bd ae35 83bd 60e9 173d
000003f0: ea01 a93b b556 c1bc bcf4 74bd da02 7ebd

fc3.bias f4 [10]
0.1671596 -0.48137695 0.32073042 0.5261133 0.35632044 -0.13984463 -0.04035678 0.057464223
-0.33612496 -0.40709844
00000000: e32b 2b3e 0a77 f6be c736 a43e 5caf 063f
00000010: a26f b63e 6e33 0fbe 274d 25bd 9b5f 6b3d
00000020: 9218 acbe 356f d0be
