pth_files/gender.pth (torch, 83343 bytes, 10 tensors)

conv1.weight f4 [6, 3, 4, 4]
00000000: 9164 0b3e 24e7 9bbd c077 94bc adea ef3d
00000010: 8da6 fcbc 65f8 30be 5792 9f3d 2d26 063e
00000020: ef36 003c db60 dd3c 5867 c13c 4177 543d
00000030: 9ab1 8c3d d259 b23d 218e c0bd b7ad 9e3d
00000040: d975 bf3d 32b6 df3d 6d32 3b3e 194b 2d3e
00000050: d17b 38bd c31e 203d 8569 c63c 54f9 a3bc
00000060: f43a 3b3d a1fc c13c 91fa 1abd 46d2 4e3d
00000070: 7533 4f3e e7e8 cc3d fea8 a43c e0c9 323e
00000080: ac70 31bc 8405 b0bd 7017 a5bd 879e 953d
00000090: 2498 683d 9096 e43d ea82 5fbd 70f0 9a3d
000000a0: 13d0 253b 02f1 823d 883d 203e 1fe8 bcbd
000000b0: 6683 623e df36 1a3e 28bb bbbc 6342 113e
000000c0: 5970 be3d 11b4 f9bc 5f33 c03d 75c3 a5bd
000000d0: fb4e a43c 2b96 d63d be13 50bd d177 60bc
000000e0: 6331 a0bd 1d16 01be 2e66 403d fde7 babd
000000f0: 241b 82bd 025b bdbd f258 123e 7f5c 693d
00000100: 99b3 6abd a9b1 d6bd c5ae 93bd b8f6 6a3d
00000110: 8419 d138 f81e 0fbe 094a 98bd 4994 e8bd
00000120: 23ef 23bd 168f a93d 6785 bf3d ad6c 42bd
00000130: 05b7 ccbd ec29 36bc 5845 b7bd 6edf f93d
00000140: 3ad6 f3bd 6c15 a33d f00e 773d 0b23 52bd
00000150: 0d9e b6bc d97f f13d 7396 12be 4f54 0b3e
00000160: 8ddc 85bd bd07 b43d 51e9 f3bd 3cf6 1bbd
00000170: f3cd b43d f30a f8bc 5370 88bc 4292 0e3d
00000180: 1a9c 273e 1a06 443e 6c5e 2a3e 47fb 0e3e
00000190: 79be b13e e378 263e b82d e33d 06ca a83e
000001a0: fb73 883e f8b5 463e 78f8 903e a3bc 773e
000001b0: 67b5 b83e 6fde f83d 0a81 b93e 173e a23e
000001c0: a896 803d a183 95bd 67c3 463d 0f5b 603d
000001d0: 951f 2ebd db13 27be f091 a3bd c5f5 45be
000001e0: 61c3 703d 9462 75bd 1a40 ccbd effa a13d
000001f0: 8328 85bd 0603 16be d9ed 8abc 8c79 2abd
00000200: 235f a53c 3ce5 35be 4610 ddbd 8184 2c3c
00000210: 1c94 cfbd 1973 54be 529c a7bd 8a8e 56be
00000220: 1ea3 26be df32 c8bd 8c53 56bd 8d8d f3bd
00000230: ceb7 14be f853 1e3d edf1 63be 7978 d33a
00000240: 279e ab3d 5e6a b3bd 8032 c5bd 1530 85bc
00000250: eccf ccbd d91c a43b bf60 d93c 4462 49bd
00000260: f9b0 f93d 61f4 bf3c 3be9 04be de86 f33a
00000270: 5507 11bd 2e34 8abd 953f 883d d401 abbd
00000280: 0fc2 e7bd a7bf 4cbd 7609 e53d 16b8 0e3c
00000290: 4235 8d3d ca8e 6a3d c462 80bd e724 613d
000002a0: 505f 9dbd 1b9b 2dbc 8b7e 3a3d 7cca 92bd
000002b0: eecb e73c 6c74 8dbd 5385 eebd 1aa1 08be
000002c0: 611b f03d 39a6 1c3d 1043 443b bb4d 7fbc
000002d0: 72b4 ab3d 4b60 eabd 210d 0ebe c3a2 833d
000002e0: cf8a a6bc 82f6 833d 7d17 a93d be54 3dbd
000002f0: 1933 adbd 9fb8 ccbd 318e fcbd 6b96 023e
00000300: f0c6 0cbe f556 44bd 6324 ecbc 5874 7dbd
00000310: 7660 69bd 75ec 973d d9f0 98bd 612f 093d
00000320: 902b 08be 7c87 e7bd db07 be3d 82d3 0abe
00000330: d034 9b3d ab02 0fbe 85bc 6b3c 7b25 8a3d
00000340: 6318 103e b5da bebd 6284 b9bc c446 01be
00000350: aa5b 60bd 3437 ea3b 0e4e 0e3c afe4 0cbe
00000360: 16ab 503c 7b9a b5bc 521f 7dbc 032e e03d
00000370: 1aa4 de3d 381a a43d 1455 acbd 995c 153d
00000380: 3559 033d ee61 3dbc 9f13 cbbd 5fe1 f73d
00000390: 1c45 c0bd 5be7 16bd a8d0 a1bd 5635 dabc
000003a0: 03ff 0abe 32ec e43d 1074 87bc 81ab b2bd
000003b0: f091 eb3b 240c e6bd 1fd0 b7bd b48f 14bd
000003c0: eb71 ad3d bbd9 f13d 9d75 533e 8784 aa3e
000003d0: fe59 5c3e 5729 3a3e b1db 95bd a8a8 0c3e
000003e0: e482 da3d 12d1 9abc facc 62bc edd8 81bc
000003f0: 2bdb 0b3b 8f88 c4bd d0f7 59bc b303 f7bd
0.13612582 -0.07612446 -0.018123507 0.11714683 -0.030841136 -0.17282255 0.07791584 0.131005
0.007825597 0.027023723 0.023608848 0.051871542 0.06869812 0.08708538 -0.09402109 0.07747977
0.093486495 0.10923423 0.18280955 0.16923179 -0.045039956 0.039091837 0.024220238 -0.02001635
0.04571052 0.023680033 -0.037836615 0.0504935 0.20234473 0.1000536 0.020100113 0.17459822
-0.010830086 -0.08594802 -0.08061111 0.07305627 0.056785718 0.1116153 -0.05456821 0.07565391
0.0025301024 0.06393625 0.15648472 -0.09223961 0.22120437 0.15059994 -0.022916391 0.14185481
0.09298772 -0.03048137 0.09384798 -0.08093921 0.020057192 0.10477861 -0.050800078 -0.013700441
-0.0782192 -0.12606092 0.046972446 -0.091262795 -0.06352833 -0.09245874 0.14291742 0.056972977
-0.057300184 -0.10483105 -0.07211069 0.057364196 9.970649e-05 -0.13976657 -0.07435996 -0.11356408
-0.04002298 0.082792446 0.09351616 -0.047466923 -0.09995846 -0.011118393 -0.08948773 0.12200819
-0.11906095 0.0796307 0.06031698 -0.05130295 -0.022292161 0.11791963 -0.14315204 0.1360638
-0.06536207 0.087905385 -0.11909736 -0.038076624 0.08828344 -0.030278658 -0.016655123 0.03480745
0.16368142 0.19142953 0.16637582 0.13963042 0.34715632 0.16257052 0.110927045 0.32966632
0.26650986 0.19405353 0.28314567 0.24193053 0.360759 0.12151801 0.36231261 0.31687996
0.062787354 -0.07300497 0.048526194 0.05477434 -0.042510588 -0.16316168 -0.0798682 -0.19332035
0.058780078 -0.059908465 -0.09973164 0.0790919 -0.065018676 -0.14649591 -0.016959118 -0.041619822
0.020186966 -0.17763227 -0.107941195 0.010529638 -0.101356715 -0.20747031 -0.081841126 -0.20952812
-0.16273162 -0.09775328 -0.05232577 -0.11892233 -0.14523241 0.038654298 -0.22260256 0.0016133926
0.083797745 -0.08760522 -0.09628773 -0.016258279 -0.100005955 0.0050083217 0.02653539 -0.04916598
0.12191958 0.023431959 -0.12979595 0.0018579622 -0.035407383 -0.06748234 0.06652752 -0.08349958
-0.113163106 -0.04998746 0.11183445 0.008710882 0.06894924 0.05726508 -0.06268838 0.054966833
-0.07684195 -0.010596062 0.045530837 -0.07167527 0.028295483 -0.06906971 -0.11646523 -0.13342705
0.11723972 0.03824446 0.00299472 -0.015582497 0.083840266 -0.11444148 -0.13872196 0.06427529
-0.020329861 0.06443502 0.08256433 -0.046223395 -0.08457012 -0.09996151 -0.12331808 0.12752692
-0.13747764 -0.04793449 -0.028825944 -0.061878532 -0.056976758 0.074181475 -0.07467813 0.03349245
-0.13297868 -0.113051385 0.09278842 -0.13557246 0.075784326 -0.13965861 0.014388208 0.0674543
0.14071803 -0.09319059 -0.022646133 -0.12624651 -0.054774918 0.007147694 0.008685602 -0.13759111
0.012736103 -0.022168389 -0.015449362 0.10946276 0.10871144 0.08012813 -0.08414665 0.03646526
0.032067496 -0.011558993 -0.09915852 0.12103533 -0.093881816 -0.03684173 -0.07901126 -0.02663676
-0.13573842 0.11177863 -0.016534835 -0.08724118 0.007189028 -0.112327844 -0.08975243 -0.03626986
0.08468994 0.11809107 0.20650335 0.33304235 0.21518704 0.18179832 -0.073172934 0.13736212
0.10669497 -0.01889852 -0.0138428155 -0.015850509 0.002134035 -0.09596359 -0.013303712 -0.120612524

conv1.bias f4 [6]
00000000: b255 0dbf bfa9 eebd e9fd 21bf a00b 04bd
00000010: b10d 54bd deb8 3a3f
-0.55208886 -0.1165347 -0.6327806 -0.03223765 -0.05177087 0.72938335

conv2.weight f4 [16, 6, 4, 4]
00000000: a203 79be 5f3d 81be 4b3f e8bc de77 0ebe
00000010: ed9a cc3d de48 353e 2323 813d cb17 c1bd
00000020: 09db 68bc 28a8 363e b82d b93d 31c2 f3bd
00000030: 48f8 89be fadd 9c3a f174 8dbb 3eb0 d4bc
00000040: 16f1 633d 8c47 a8bd c849 233b 1ea6 73bd
00000050: 16af bb3c a644 96bd d8a0 153d 928b 4a3d
00000060: f6a1 6ebd 0275 99bc e83f 7abd 1d90 c5bd
00000070: a527 dcbc 9ee8 c83d 25e2 a2bd d1ef 043d
00000080: 87a8 5ebe 9a13 40be db67 47bd b1df 45be
00000090: df04 37bd 27bf 383e c532 d63d ddec 8e3d
000000a0: 2a53 c7bd 9b03 2e3e c8de f83d 43e7 913d
000000b0: ba6a b0be 98a0 ea3d 956a 923c 339c 003d
000000c0: bb7f 803d a67d 6b3d e78e 34bd 18bc 903c
000000d0: 410a 46bd f7df 793d 2cf0 9c3d 41f0 92bd
000000e0: 03b1 c03c c03b eb3b e4c9 2c3c 5c40 a6bc
000000f0: 5d23 8bba 4277 203c 1223 8dbd 8c25 61bc
00000100: 806c 69bd f070 7b3d 55af aabd d081 1ebc
00000110: de4b 563d 2399 2cbc cd2c 30bd 54d0 b23d
00000120: b215 b4bd 3e74 4b3b 44ac 96bd 60e9 e7bc
00000130: fd2a 863d 5e27 9d3d 3184 b3bd e391 cd3c
00000140: 70e5 953e 44fa 84bc 6709 51bc f8d6 963b
00000150: d5ae 073e 5cb7 0cbd 19b7 90bd adf6 dc3c
00000160: 89c1 463e 5ed6 6a3c b1d1 00bd f563 34bc
00000170: 1879 e23d d43e 233e 55b3 22be 3eae dbbc
00000180: 5cf3 4538 fb59 ac3e 4b10 46be d985 2c3c
00000190: 9e3e 31be d96a 84bd 4982 eabd 1e8f 40bd
000001a0: fb23 82bc 3109 cabd b1a6 11be abd3 8fbd
000001b0: 9177 9c3e 14d5 d33d 8eb1 903e 22a7 523e
000001c0: de3a a9bd 1528 f03b 7662 b8bc 52ca 61bd
000001d0: f147 9fbd ab06 b2bd d2d4 3e3d 315b 2b3d
000001e0: f6ba b0bd 1460 44bc f1c6 17bd 9f03 8cbd
000001f0: 022a bfbc b74d 3f3c ba35 793c dc69 0b3d
00000200: 06ca af3d c782 d63d 8920 81be 1035 fabd
00000210: 73d4 7dbe 0279 75be d5fc b0be 23d7 a6be
00000220: b3b1 1d3d fc2e d9bd fb5d 52bd e87e cfbd
00000230: 4622 033e c14d 383e 4b16 4a3e 47c1 7e3e
00000240: 0507 c53c 548a 693d 9eb0 5cbd 23d5 1a3d
00000250: 5ff8 9f3c 50c3 9e3d 5a1b be3c 510f c0bd
00000260: 530c 6ebd f770 adbc df35 2cbd 7fe8 793d
00000270: 7c62 0b3d 2286 09bc bee8 793d 1bf4 94bd
00000280: 43fe 0b3d 774a 023d 8b76 633d ac89 643d
00000290: bfea 993d 09c4 a33d 68ba 9e3d 7f1c bb3d
000002a0: d413 8c3d 43a4 cabd 1c06 16bd 352d 3d3a
000002b0: e039 afbd e272 a13d f197 97bd 9b3d 60bd
000002c0: c75c b93e ea06 0d3d 80f6 053e e0b2 c03e
000002d0: c637 b13d 65e2 08be 3ab3 dcbd da3d dabd
000002e0: 92ba bebc dcb0 f9bd e899 4abe 098d eebd
000002f0: 8d9b 8b3b 7d03 57bd a126 26bd ee03 a73d
00000300: a9df 8ebd 6cbc 12be 9a96 1dbd c1e1 dd3c
00000310: da7d b63c 75ca 953c 3bed 513d 433a dbbd
00000320: 926e 0bbe 697c 093d 7de7 343d 3f80 57bd
00000330: 0c7d 8fbd 13dd 7b3d f238 633d a7f9 e0bc
00000340: b593 17bd 0268 3cbc 87ee 3ebc 2e10 b2bd
00000350: 4ee1 493d 78a4 a3bd 0879 d03d 1d41 c93d
00000360: 06d1 4e3d 1578 c83d 6ac8 1fbd 76ba 5a3d
00000370: 9eae 4cbd adcd ec3c 49b8 90bd a749 233d
00000380: 4577 89bb f24e 34be b932 97bd 09ce 1dbd
00000390: 64ed 04be 0e94 d93c 9db7 5dbd 5f8a 213d
000003a0: 6f7b c0bd 4efb cebc 8bbe 3e3c ceb8 a93d
000003b0: b216 91bc 3e59 1e3d f6b2 493d b823 563d
000003c0: 54a1 f83c 362c aebd a6d3 b4bc 7ff9 f9bb
000003d0: 33a6 403c 789b 2c3d b96b 9fbd 2ba8 baba
000003e0: dafc 97bd 1e95 833d e863 cdbd 17ed ad3d
000003f0: 7595 b93d 7bcb 943c d8c2 ba3d a32f 3e3d
-0.24317792 -0.25242135 -0.028350493 -0.13912913 0.09990487 0.17703578 0.0630553 -0.09428366
-0.014212378 0.17837584 0.09041923 -0.119022734 -0.26947236 0.001196801 -0.004316919 -0.025962945
0.05564984 -0.082167715 0.0024915803 -0.059484594 0.022910636 -0.073373124 0.036530346 0.04944951
-0.058259927 -0.018732551 -0.061096102 -0.09646628 -0.026874373 0.09809993 -0.0795329 0.03245527
-0.21743976 -0.18757477 -0.04868303 -0.19323613 -0.04468238 0.18041669 0.10458902 0.06978772
-0.09732659 0.16993563 0.12151867 0.07124188 -0.34456426 0.11456412 0.017873088 0.031398963
0.06274363 0.057492875 -0.044081595 0.017667815 -0.048349623 0.061004605 0.07662997 -0.07174731
0.023521906 0.0071787536 0.010546181 -0.02029436 -0.0010615397 0.009794058 -0.06891455 -0.013741862
-0.05698824 0.061387002 -0.08334223 -0.009674504 0.052318446 -0.0105345575 -0.043011475 0.08731142
-0.087932006 0.0031044628 -0.07357076 -0.028309524 0.06551168 0.07673524 -0.08765448 0.025093978
0.2927661 -0.016232617 -0.012758589 0.004603263 0.13250287 -0.034354553 -0.07066173 0.026973093
0.19409765 0.014333336 -0.031449977 -0.01101016 0.11058253 0.15941936 -0.15888722 -0.026816484
4.7195106e-05 0.336624 -0.19342153 0.010529959 -0.17309043 -0.06465692 -0.11450631 -0.047011487
-0.015886297 -0.09865034 -0.14223744 -0.07022794 0.30559972 0.10343376 0.28260463 0.20571569
-0.08263181 0.007328997 -0.022507887 -0.05512459 -0.077773936 -0.08692678 0.04658968 0.041835014
-0.0862941 -0.011985797 -0.03705496 -0.06836628 -0.02333546 0.0116762435 0.015210563 0.034036502
0.08583455 0.104741625 -0.25220135 -0.12217152 -0.24788074 -0.23971942 -0.34567896 -0.3258601
0.038499545 -0.10604665 -0.051359158 -0.10131627 0.12806043 0.17998411 0.19735067 0.24878417
0.024051199 0.057016686 -0.053879373 0.03780092 0.019527612 0.07752097 0.023206402 -0.093779214
-0.058117222 -0.02117203 -0.042043563 0.06101274 0.03402947 -0.008393796 0.061012976 -0.07273122
0.03417803 0.031809296 0.055532973 0.055795357 0.075154774 0.07996375 0.07750398 0.091362946
0.068397194 -0.09894612 -0.03662692 0.0007216514 -0.08555961 0.0788324 -0.074020274 -0.05474625
0.36203596 0.034430422 0.13082314 0.3763647 0.08653216 -0.13367613 -0.10776372 -0.106563285
-0.023282323 -0.121919364 -0.19785273 -0.11647994 0.0042604865 -0.05249356 -0.040564183 0.081550464
-0.069762535 -0.1432969 -0.038473703 0.027085187 0.022276808 0.018285016 0.05125163 -0.10704472
-0.13616398 0.033565912 0.044166077 -0.05261254 -0.07006273 0.06149013 0.05547423 -0.027462794
-0.0370061 -0.011499407 -0.011653549 -0.08694492 0.049287133 -0.07990354 0.10179335 0.098268725
0.05049231 0.09788529 -0.03900949 0.05340048 -0.049971215 0.028906668 -0.070663996 0.039865162
-0.0041951262 -0.1760824 -0.073827215 -0.03852657 -0.12981182 0.026559856 -0.054130185 0.0394386
-0.09398543 -0.025266316 0.011642109 0.08287202 -0.017711017 0.038659327 0.049242936 0.052280158
0.030350365 -0.08504526 -0.022073578 -0.007628619 0.011758375 0.042140454 -0.07784218 -0.0014240792
-0.074212745 0.06424926 -0.10028821 0.08492487 0.0906171 0.018163433 0.09119195 0.04643215

conv2.bias f4 [16]
00000000: 1ce6 68bd b6af 833e 64be 8bbd 1ef0 89bd
00000010: 7367 123e ef3f 33be 6fdf 1dbe cd46 01bd
00000020: c855 6e3c 1c28 7a3e 2efc 49be e2ad 9f3b
00000030: 6d50 99bd 7651 3ebd 5f47 173e b5f2 bd3d
-0.056860074 0.25719994 -0.068234235 -0.06735252 0.14297275 -0.17504857 -0.15417264 -0.03156166
0.014546819 0.24429363 -0.19725105 0.0048730234 -0.07486043 -0.046464406 0.1477332 0.09274808

fc1.weight f4 [120, 64]
00000000: abb7 463d 0e4e 5ebc 8093 bbbd f6e7 c93d
00000010: ac32 3dbd bacf 0d3d a30e 233d 3ff8 a8bd
00000020: 3c24 cbbb 74a7 f0bd e027 bdbd a0e0 dabd
00000030: 88f0 c23c fa0d ab3d 0acd ecbd a03c 323c
00000040: 13cb edbc 9216 74bc e678 d6bd a1b0 e13b
00000050: 8910 893d 3f11 01bd aea2 633c e896 f13a
00000060: 4db5 a1bd 35ea aebc affc 8c3d cfd1 01bd
00000070: 4ebc 953c 046f a23d 6d91 91bc 0753 143d
00000080: afb6 cd3d 4dbf 82bd 9ca3 8f3d 1c9f edbd
00000090: 2230 92bd b327 19bc ab1c 123d 2fac 9b3c
000000a0: 7104 ccbd ada0 87bd 854f fe3d b7c2 60bd
000000b0: 57a5 0e3d 3bed ccbd 6f6f b5bd bda9 b43d
000000c0: 067d df3d 90a0 de3d 34ab e5bd e210 de3d
000000d0: 1f9b 713c c457 52bc d757 2b3d 5a1e dabb
000000e0: d72e e7bd 9a69 7b3d 56d9 a8bd e9d4 a7bd
000000f0: b546 ffbc a690 983c fd57 a93d 6ce8 83bd
00000100: adc7 24bd 4d1a b5ba 2c6d ffbd c388 acbd
00000110: 04d3 6d3d e9ea 1abd f3b6 c8bd 6d78 7abd
00000120: b0bd a1bd 0f0f 20bd 8d9b 83bd 3886 38bd
00000130: 86d0 e6bd 56fc 8dbd 20d7 bebb 6e21 f83d
00000140: 0c0f ed3d 4032 9b3d 631a 94bd b1f2 bcbd
00000150: 7035 d6bd 00d6 2dbd 5dd6 df3d fd3e 5fbd
00000160: 8562 563d 9098 23bd acea 0b3d b3da 65bd
00000170: e6d3 29bc 13f5 fbbc 4bc9 2a3d e1f1 473d
00000180: c44b af39 c734 003e 61c1 56bd 3999 e3bd
00000190: a5d2 d0bd ca6b 3cbd 1acc bebc 49e7 c7bd
000001a0: 1bbe 99bd 8f8c 053d 542f 393d 9e47 3d3d
000001b0: b2be b4bd d3b0 0ebd 3531 c8bc 6671 f9bd
000001c0: b40e 73bd d2fc 453b 7027 2bbd dccc 663d
000001d0: c4a0 333c e9c6 5ebc e578 a2bd e1f4 fabd
000001e0: a2fc f93d f168 053d 8317 f3bd 84f7 483d
000001f0: ea09 cabd 1d36 0c3d f8ef cabd bccc c9bd
00000200: ed06 5f3d ff3c f13d 947e ffbd 64cb 84bd
00000210: dcbf 88bd 6ef2 0ebe d69f 2d3d 8beb f03c
00000220: bea5 0cbc 83a4 a8ba 3283 c5bd 419a 623d
00000230: b456 ebbd 6c7a 7bbd 1e9b b93d 525d 9bbd
00000240: 96d5 11be 1af0 1e3e 5865 6a3c c7c2 f7bb
00000250: 7dea 013e bf67 a43c 5dd4 8fbc 7ae4 c23d
00000260: fbd3 99bc 9cd6 87bd 18f7 b83d 77e6 a03d
00000270: b0d9 c93d 5140 703d 0043 24bd 03e7 843c
00000280: cbe4 273d ae5e c73d fc67 e6bd 93c9 8cbc
00000290: 1184 c23d 78be 963d 5af2 a03d 5132 00be
000002a0: de5d 7d3d 6e10 1d3e 90ae f3bc 31c7 1ebd
000002b0: 21f6 d73c e19a b5bd 6f01 0d3e 7f93 fbbd
000002c0: dd25 f6bd 678b be3d 2aa7 1a3c 1fd6 533d
000002d0: 4221 0e3e fce3 04be 569e 6cbd d13d 4b3c
000002e0: 3c25 023d f0be a23d 9c35 4cbd df89 a1bc
000002f0: 5f95 90bd d4b9 85bd ca7c af3d 9c63 a2bd
00000300: b438 b8bd a8eb 61bd ac92 bcbc 9b28 133c
00000310: cb7b e7bc 3161 603c 5790 3d3d 22fd 2cba
00000320: 6b23 89bb f403 cdbc 139f c93d faa3 d13d
00000330: c24e be3d 8a35 813d 7c91 bebd 1e79 ea3d
00000340: c52a aebd 4028 1abd 3bef c13d f5dc 90bd
00000350: f0bd 47bd fcb4 1cbd b9f0 003e f296 053e
00000360: 4a72 f4bd a22c 72bd 4580 babd fcec ef3c
00000370: 1dc7 3ebd 0b8a e5bd acc7 f5bd 5fbd eabd
00000380: 9f6c b93d 3532 27bd ef46 3fbd 559c 5fbd
00000390: 6d8d 343c bb43 153b 9ef8 d33d 7200 80ba
000003a0: a2c7 c9bd 118a 863d 8ad4 b03c 4661 bcbd
000003b0: 1f32 a63c 7397 e73d 5d0b 6dbd 4f87 f23d
000003c0: 3e00 373d dd8b 3d3d 9f3a d13d 89fd 5ebd
000003d0: 8343 80bd 7b18 27bd 871e c4bd 7e46 a73d
000003e0: 63bd 453d 5825 7ebb cf23 64bd ef79 6b3d
000003f0: 61c9 bd3d 593d 043e bba6 723d 233e 7bbd
0.048515003 -0.013568414 -0.09158993 0.09858696 -0.046190903 0.03462193 0.03980888 -0.08250474
-0.006199388 -0.11750689 -0.09236121 -0.10687375 0.023796335 0.08352275 -0.115625456 0.010878712
-0.029027497 -0.014897959 -0.10472278 0.006887511 0.06692607 -0.031510588 0.013893766 0.0018431814
-0.078959085 -0.021351913 0.06884133 -0.03169423 0.018278267 0.07931331 -0.01776954 0.036211994
0.1004461 -0.06384144 0.07013628 -0.11602613 -0.07138087 -0.009347844 0.03567187 0.019003002
-0.09961785 -0.06622443 0.12417511 -0.054873195 0.03482565 -0.100061856 -0.08859145 0.088214375
0.10912518 0.108704686 -0.11214295 0.10843064 0.014746456 -0.012838308 0.041831817 -0.00665645
-0.11288231 0.061380006 -0.082445785 -0.08194906 -0.031161645 0.018623661 0.082687356 -0.06440815
-0.04022949 -0.0013817042 -0.12471995 -0.08424523 0.05806257 -0.037821684 -0.0980052 -0.061150003
-0.07897508 -0.03907686 -0.06426153 -0.045049876 -0.112702414 -0.06932895 -0.0058239847 0.12115751
0.115751356 0.07577944 -0.07231595 -0.09225977 -0.10459411 -0.042440414 0.109295584 -0.05450343
0.05234005 -0.039940417 0.034159347 -0.05611677 -0.010365462 -0.030756509 0.041695874 0.048814658
0.0003343505 0.12520133 -0.052430514 -0.11113209 -0.10196427 -0.046001233 -0.023290683 -0.09760911
-0.07506963 0.03260475 0.04521115 0.046210878 -0.08825435 -0.0348366 -0.024437526 -0.12179832
-0.059340194 0.0030210507 -0.041785657 0.056347713 0.0109636225 -0.013597229 -0.07933215 -0.12253738
0.12206389 0.032570783 -0.11869719 0.049064174 -0.09865172 0.034231294 -0.09909052 -0.09853503
0.054449964 0.11779212 -0.12475315 -0.06484106 -0.06677219 -0.13959667 0.04238876 0.02940919
-0.008584438 -0.0012866411 -0.09644164 0.05532289 -0.11491147 -0.061396047 0.090627894 -0.07586159
-0.14241633 0.15521279 0.014306389 -0.007561061 0.12687106 0.020069001 -0.017557317 0.09516235
-0.018777838 -0.0663273 0.090315044 0.07856458 0.09855974 0.058655087 -0.04010296 0.016223436
0.04098968 0.097348556 -0.11250302 -0.017185962 0.09497846 0.07360548 0.07858725 -0.12519194
0.061857097 0.15338299 -0.029746324 -0.038764182 0.02636248 -0.088674314 0.13770078 -0.12283992
-0.120189406 0.09303933 0.009439269 0.051717874 0.13879874 -0.12977594 -0.05776819 0.012404875
0.03177379 0.07946575 -0.049855813 -0.019719062 -0.0705974 -0.065295845 0.085687235 -0.07929155
-0.0899519 -0.05515638 -0.023019157 0.008981849 -0.028257271 0.013695047 0.04628023 -0.0006598999
-0.0041851304 -0.025026299 0.09844794 0.10236354 0.092923656 0.0630904 -0.09305093 0.114488825
-0.085042514 -0.03763604 0.09469458 -0.07073394 -0.048765123 -0.038258538 0.12591828 0.13045862
-0.119358614 -0.059124596 -0.09106497 0.029287808 -0.046576608 -0.1120797 -0.12000975 -0.11461901
0.09053921 -0.040819366 -0.046698507 -0.05459245 0.011020047 0.0022775966 0.10350154 -0.0009765758
-0.0985253 0.06569303 0.021585722 -0.09198241 0.020287571 0.113081835 -0.057872165 0.11842214
0.044677965 0.046275962 0.10216259 -0.05444101 -0.06262877 -0.04079483 -0.09576135 0.08167742
0.048276316 -0.0038779583 -0.055698212 0.05748933 0.092669256 0.12914027 0.059241038 -0.061338555

fc1.bias f4 [120]
00000000: 592b dabd 273d 3abc 3250 bc3d 2f69 a2bc
00000010: ae08 853d 0469 e7bc a318 e73d 2889 3b3e
00000020: 374d 98bc d59a 37bd a3fe 1cbb 1945 9abd
00000030: 0bd9 cd3d 5ab0 373d 0009 b0bd c126 433d
00000040: 0bb7 39bd 8bcb a93d f339 38bd 3c8d c93c
00000050: 2f81 4abd 5e1c 9f3d 6ac6 f1bd 308a c23d
00000060: f87d 8cbc 09b7 103d f7ac 8b3d d09c 12bd
00000070: 14db b1bd df01 4abd c1bc bdbd 9e0e 7f3d
00000080: 493a aabd dc3c ea3d 3fa4 1abd 9c03 de3c
00000090: c1c6 863d 8cbb 9d3d 8c14 4b3d 9870 ed3c
000000a0: a569 c63b 5fbf d2bc 2cbc fb3c 7720 d03d
000000b0: 8929 23bd d2c0 d1bd 3474 333d ded8 c63d
000000c0: 9feb b63d 74da 6b3d 555d e23c 715b be3d
000000d0: c769 0c3e 22a5 e0bd fbf8 e63d 5947 85bd
000000e0: 5ef5 cabd 157c dabd 0a2b a03d 1b1b 993d
000000f0: f43f 723d fec7 9bbd 97d1 973d beca c03d
00000100: 748d 05bd a528 4fbd 544f 3f3c 79c1 713d
00000110: 2a4d 33bb 8b22 d6bd 07cd 283d 7710 0c3e
00000120: d599 ecbd 994e 91bd 85e6 e1bd 1ebb afbc
00000130: ec03 a33d b6cd b93d 58c6 c3bd f6e3 a23d
00000140: a307 393d 2984 8dbd 5bce 88bd 51bd 383d
00000150: bd9c 5e3d efe3 0c3e d3be e1bc 03a2 51bd
00000160: ff6c febd cd48 b13d c475 123e 904c ad3c
00000170: 85c5 303c edcf 3ebd 05e1 9a3c b4de 17bd
00000180: dd60 2c3d 8217 04bd 4165 453d 83d3 e93d
00000190: 11cc 9bbd b342 96bd 602e 833d fcc6 d2bd
000001a0: 04f0 cd3d b95c 7bbd fb4a 81bd dbb2 56bd
000001b0: 0e93 153d 7224 313c 6ee1 81ba 2fa8 6a3b
000001c0: b966 0bbd e8f3 db3d 8d2d 84bd 4710 e5bd
000001d0: 21da ac3b a414 91bd 3ee3 d3bc e479 323d
-0.10652799 -0.011367119 0.091949835 -0.019825546 0.06495796 -0.028248318 0.11283996 0.1831404
-0.018591506 -0.044825394 -0.0023955486 -0.075327106 0.10051163 0.044845916 -0.085954666 0.04764438
-0.04534058 0.08290776 -0.04497714 0.024603479 -0.049439605 0.077690825 -0.118054226 0.094990134
-0.01714991 0.035330806 0.068201 -0.03579408 -0.08684364 -0.04931819 -0.092645176 0.0622698
-0.08311898 0.11437389 -0.037754294 0.02710133 0.06580878 0.07701787 0.049580142 0.028984353
0.0060550743 -0.025726018 0.030729376 0.10162442 -0.039834533 -0.10241856 0.04381199 0.09709333
0.0893166 0.05758138 0.027632395 0.09294785 0.13712226 -0.109689966 0.11277958 -0.06507749
-0.09910081 -0.10668198 0.07820709 0.07475873 0.05914302 -0.07606505 0.07413023 0.0941367
-0.032605603 -0.05057587 0.011676628 0.0590224 -0.0027359226 -0.10455807 0.041211154 0.13678156
-0.11552779 -0.070950694 -0.11030296 -0.02145153 0.079597324 0.090724394 -0.095593154 0.07953636
0.0451733 -0.06909973 -0.06679984 0.04510242 0.054348696 0.13758825 -0.027556812 -0.051179897
-0.12423133 0.08656464 0.14302737 0.021154672 0.01078928 -0.046585012 0.018906126 -0.03707762
0.042084564 -0.03224898 0.048192266 0.11417296 -0.07607282 -0.073369406 0.0640533 -0.102918595
0.10055545 -0.061367724 -0.063131295 -0.052416664 0.036517195 0.010811912 -0.0009909102 0.0035805812
-0.03403351 0.10739881 -0.064540006 -0.11184745 0.0052750264 -0.07084015 -0.025865193 0.043573275

fc2.weight f4 [84, 120]
00000000: 334f 1f3d 977d 01bd 4a8e b7bd 75f7 1b3d
00000010: 57a1 363a 939a d63c d2f3 bebd 7828 2fbd
00000020: 4775 a33d 03be 783d 1052 f3ba a2b7 ca3c
00000030: efc9 163e 0102 a7ba 7894 583c dab6 83bc
00000040: 0b42 a1bd 41d8 343c 771c ab3c 30fd 84bc
00000050: a594 29bd a10f 353d 224b 45bd a197 b43d
00000060: 485e 513d b717 7ebd f3a9 c9bd 6f0d 4fbd
00000070: 342e c4bc 880d 413d 138c 4c3d 7adc 47bd
00000080: f6c5 ef3c da47 653d 0fcf a23d 3c06 b1bc
00000090: acb0 013d 9b90 5f3d 28d7 4ebd dfc5 85bd
000000a0: ba9e 913d 219b 143d 6e04 4dbd d9ac 3dbd
000000b0: 2998 1dbd 3695 1cbc d61b 9ebd 2b1c 83bd
000000c0: 1b61 ba3c 9afc 8b3d 3af1 2abd 11e5 4b3d
000000d0: 793a c33b 8249 cd3c a57f b73d 4046 a83c
000000e0: 6954 19bb 19f2 41b9 59df fc3d 779d fd3d
000000f0: abea 63bc 0946 c8bd 236b 8c3d c293 9b3d
00000100: d80b babd a004 8e3d dbeb 4c3d 2d69 193d
00000110: 9b4a dc39 8d48 3a3d a542 a73d 5042 16be
00000120: 0d13 25bc 75e4 4e3d e050 15bd 5e12 04bd
00000130: 2d13 a93d c063 c6bd bb8c a93d aa1b 4c3d
00000140: f590 953d c2cd 9c3d fae2 ad3d 4beb 673d
00000150: afbb 453d 8bd6 e5bd ada7 55bd addc 14bd
00000160: ca77 9fbd 5ad9 403d 35a8 6a3c 4956 92bd
00000170: 9a59 c03c 1d26 c83d f5dc 5bbd d01e 873c
00000180: 5086 c23d 95a3 f43c 511c 9ebd 3323 7e3d
00000190: e83c b0bd 8352 11bd d638 2dbd a9b9 a83d
000001a0: ec16 153d be9d a1bc a4a6 b2bc c2e1 1cbd
000001b0: 5493 d5bd bdc0 a23d 3023 a9bc f9b6 8b3a
000001c0: da57 aebd 7b25 953c c286 b3bd 7dd6 303d
000001d0: 9437 003e 69ea 35bb 5d15 6a3d 5353 b6bd
000001e0: f366 533d 44cd 2d3d 481b 6d3a 49fb 14bd
000001f0: 8089 db3c d1e2 23bc 1b6e aabd bdd7 0f3b
00000200: 58fe 47bd ff78 af3d 139f 883b 98ad 91bd
00000210: 40ac dcbb 4e31 00bd effd 813d b7cf b43c
00000220: c845 b53d f997 3c3d d771 a43d d5ae b2bd
00000230: 5e87 4d3d 468e 333d 45bc 113c ddce 43bd
00000240: 2a0d a0bd 1ebe 143d 7ae3 50bd 378c a6bd
00000250: 9ffb 4f3c 15da c7bc ca15 273c db6d 13bd
00000260: c735 9e3d bf8d 34bd 19f5 89bd e15f 213d
00000270: fc7d 953c fe11 c6ba 2401 a2bd a9c5 f6bc
00000280: f0bb 6ebd 8232 33bd 5e17 5a3d a2ce d9bc
00000290: ad53 80bd e13f fabc c3b6 bcbc d6fc 7e3b
000002a0: 7a31 78bd 608f 913d 689f 9b3c 5fb9 01bd
000002b0: 5c21 b73d ce49 413b 681c 5ebc 1065 9dbd
000002c0: 29a8 41bd 65b7 313b 3da0 bfbc 461b ba3d
000002d0: 8510 6dbd ee29 94bd 08a4 b33c 27c3 853d
000002e0: d576 223d 68c4 a53d e319 3dbd bd04 f0bc
000002f0: 0906 91bd b642 b53d c2ca 183d 3672 3ebd
00000300: b34d b53d fbd4 aabd 05ee 1cbd 8f11 9abd
00000310: 894d 80bd c070 a83d f696 a8bd de1c 6fbd
00000320: 2b65 05bd e38b b33d 7b44 303d be1d a6bd
00000330: 8dd9 8bbd f86a 653d 1184 21bc 40a7 9fbd
00000340: b251 763d c39f 29bd 6a8c b83c 2e51 8dbd
00000350: 4036 abbd 0e02 fdbc 5ac6 b63b 65a1 58bd
00000360: 7554 a93d 9f73 4c3d 27d8 2e3c 3458 5a3d
00000370: 125b 993d ca85 ae3b 77bc b53d 27bf b93d
00000380: 07db cf3c 2105 03bc b80a ffbc 72af 8cbd
00000390: 1612 7ebd 4358 55bd 4594 743d d874 223c
000003a0: 21eb 413d 8eab 9bbd 8f87 49bd 3ba0 09bc
000003b0: fcac e63c f30c e0bb 90f0 893c e12d f8bc
000003c0: 4531 36bc 0f46 ab3d 9593 b23c 08f8 b53d
000003d0: 5c71 3ebc a6ad 4d3d 02b6 a93d 0285 23bd
000003e0: b434 163d 8e3e 91bd cafb 08bd 56e6 38bd
000003f0: d2b9 00bd f730 ec3c 8372 8d3d 022f 9f3d
0.03889389 -0.031613912 -0.08962686 0.03807779 0.00069667905 0.026196754 -0.09323849 -0.042763203
0.07981353 0.060728084 -0.0018563885 0.024745766 0.14725469 -0.0012741686 0.013218991 -0.016078401
-0.07873925 0.011037887 0.020887597 -0.01623401 -0.041401524 0.044204358 -0.048167355 0.088179834
0.051115304 -0.062034335 -0.09846868 -0.05054992 -0.023947813 0.047132045 0.049938273 -0.048794247
0.0292692 0.055976726 0.079496495 -0.021609418 0.031662628 0.054581266 -0.050498158 -0.065318815
0.07110353 0.036280755 -0.050053053 -0.04630742 -0.03847519 -0.009557059 -0.07720153 -0.06401857
0.022751382 0.06835289 -0.041733958 0.049779 0.005957898 0.025059465 0.08959893 0.02054131
-0.002339626 -0.00018496103 0.12347288 0.1238355 -0.01391093 -0.09778983 0.06856372 0.07596542
-0.0908429 0.06934476 0.050029617 0.03745382 0.00042017255 0.045479346 0.08167008 -0.14673734
-0.010075343 0.050510842 -0.03645408 -0.03224408 0.082556106 -0.096869946 0.08278795 0.04983107
0.07303039 0.07656433 0.08490558 0.056620877 0.048274692 -0.112225614 -0.05216186 -0.036343265
-0.0778652 0.047082283 0.01432233 -0.07145364 0.023480225 0.097728945 -0.053677518 0.016494185
0.09498274 0.029863158 -0.07720245 0.062045287 -0.08605367 -0.03547908 -0.04229053 0.08238537
0.036398813 -0.019728538 -0.021807976 -0.038301237 -0.10428491 0.07946918 -0.020646662 0.0010659388
-0.0851285 0.018206349 -0.087659374 0.043173302 0.12521201 -0.0027758128 0.05714928 -0.089026116
0.051611852 0.042432085 0.0009044898 -0.036372457 0.026798964 -0.010002808 -0.08321782 0.0021948658
-0.048826545 0.08568 0.0041693537 -0.071131885 -0.006734401 -0.03129702 0.06347262 0.022071702
0.088512 0.04604337 0.08029526 -0.08724753 0.050177924 0.043836854 0.008894985 -0.047804702
-0.07815011 0.036314122 -0.05099819 -0.081322126 0.0126942685 -0.024395982 0.010198066 -0.03599344
0.07725101 -0.044080492 -0.06736202 0.039398078 0.01824855 -0.0015111563 -0.07910374 -0.030123549
-0.0582847 -0.04374934 0.05324494 -0.026587788 -0.0626596 -0.030548038 -0.023036366 0.0038908026
-0.06059406 0.07107425 0.01899691 -0.031670924 0.0894191 0.0029493454 -0.013556577 -0.07685292
-0.04727951 0.0027117368 -0.023391837 0.09087233 -0.057877082 -0.0723456 0.021928802 0.06531363
0.03966411 0.08094102 -0.046167266 -0.029299134 -0.07081229 0.08850615 0.03730274 -0.04649564
0.088527106 -0.08341404 -0.03831293 -0.0752288 -0.06264789 0.0822463 -0.082319185 -0.05837714
-0.032567184 0.08766916 0.043034058 -0.081111416 -0.06828604 0.056010216 -0.009858147 -0.07795572
0.060136504 -0.041412126 0.022527892 -0.069002494 -0.08359957 -0.030884769 0.0055778446 -0.052888293
0.08268062 0.049914952 0.010671652 0.053306773 0.074880734 0.0053260075 0.088738374 0.090696625
0.025372995 -0.007996828 -0.03113304 -0.06869401 -0.062028967 -0.052086126 0.059711713 0.009915553
0.047343377 -0.07601081 -0.049201544 -0.008400018 0.028158657 -0.006837481 0.016838342 -0.030295314
-0.011120145 0.08362972 0.021798888 0.08885199 -0.011623707 0.050214432 0.08286668 -0.039921768
0.036671355 -0.070920095 -0.03344325 -0.04514154 -0.031427212 0.028831942 0.06906607 0.07772638

fc2.bias f4 [84]
00000000: b129 ff3c f128 28bc 6157 9ebd 7dc4 f73d
00000010: fd29 fe3d e84b a4bd a4a1 0f3d ae0b 86bd
00000020: 6537 47bc 4893 963b 3517 973c 1442 88bc
00000030: f1ab 09bd 73c5 3d3c dacc 703d 4f31 703d
00000040: eb1f 96bd 922a 69bd 19e1 afbb 3a74 043d
00000050: cb27 98bd 44d5 7fbd e804 ae3c 2877 eb3c
00000060: 86b8 703d 989c c6bc 9ff4 143e 1cf8 8c3d
00000070: 922c cf3d 0c88 a9bb b4e8 edbc 3e81 403d
00000080: ab92 2ebd 4330 913d 7a06 84bb d1ee 99bd
00000090: 9c71 70bc 036b aebd 33a6 1cbd 7a0d 8dbd
000000a0: fe62 c93d 68d0 9f3d dffa 313c e415 e53c
000000b0: 81e3 b13d 31db 9ebd c613 b0bb 02fc 15bd
000000c0: 51f7 143e 16fb 813d 7ae7 86bc 4fcf ca3a
000000d0: b07d 913c f655 5dbd 6cbf 363d 5644 b73c
000000e0: fb0e 863d 6db4 06bc 92e0 acbc ebc0 cabd
000000f0: f49d 903c dac4 bc3d 8eda a5bd 3046 2ebd
00000100: f475 583d 9f04 023d 3ff9 54bd fb7d 7d3d
00000110: 915a 6fbd e150 afbd 384c acbd 7181 623d
00000120: b778 fbbc 5bcd 8a3d 8a2d 213e 443c a6bc
00000130: 938f 433d a649 b83c b3a2 39bd df9b 81ba
00000140: df3e 983c b7bc dbbd 0878 29bc 6756 69bc
0.03114781 -0.010263667 -0.0773151 0.12098024 0.124103524 -0.080222905 0.035066262 -0.065451965
-0.012159203 0.004595194 0.018443683 -0.016633071 -0.03361124 0.01158272 0.05878911 0.058640774
-0.073303066 -0.056925364 -0.00536741 0.032337405 -0.07429465 -0.062459245 0.021242574 0.028743342
0.058769725 -0.024244592 0.1454644 0.068832606 0.10115923 -0.0051736888 -0.029041626 0.046998255
-0.042620342 0.07089283 -0.0040290924 -0.07516254 -0.014675524 -0.085165046 -0.038244437 -0.06887336
0.098333344 0.07803422 0.010863035 0.02796454 0.08685971 -0.07756651 -0.005373451 -0.036617287
0.14547469 0.06346719 -0.016467799 0.001547316 0.017760128 -0.054037057 0.044616148 0.022371452
0.06545826 -0.008221728 -0.021103177 -0.099000774 0.017653443 0.09217234 -0.080983266 -0.042547405
0.052846864 0.03174269 -0.051995512 0.061887722 -0.05843598 -0.08560348 -0.08412975 0.055299226
-0.03069721 0.0677745 0.15740028 -0.020292409 0.047744345 0.022496056 -0.045321178 -0.0009888372
0.018584667 -0.10729354 -0.010343559 -0.014241791

fc3.weight f4 [2, 84]
00000000: 365a 46be bae3 563c 0635 913d 7de1 003d
00000010: acfe 4b3e 863d 4fbd 1509 863c 4df7 dcbc
00000020: 8734 2c3c 420f af3d c04c c23d 3907 0bbe
00000030: 95e1 ad3d c078 34be f0ca e0bd aa3d 5cbe
00000040: 7554 a23d da19 893d 734c ecbb 5540 2c3d
00000050: 4658 adbd b89e 3f3c a9f1 2fbe 3033 113e
00000060: ed93 953d 5fa3 f9bc b7d3 963e 4b34 afbb
00000070: e856 893e 4e12 1dbe 2a7b 363d 598c 7bbe
00000080: d78c 333d bf98 d1bd da4c 8a3d 1531 78bd
00000090: 7ccf 6abe babb e5bb 468a 87bd 02c8 5cbd
000000a0: 5b89 87be 8fc6 d5bc 45ec 923d 9a99 a3bd
000000b0: e55b 6f3e 33cd 293d e915 ab3d b540 443d
000000c0: 7159 7d3e 0f72 06be a006 493c f662 ee3c
000000d0: 8a8c 8fbd cc25 ef3b e3de ab3d eeb1 6cbe
000000e0: 23c7 9bbe b7b0 90bd 8b5c aebd aec1 abbd
000000f0: fb3b 773d 5647 353e ca78 6f3d bfa1 60bc
00000100: b351 acbd e0ca 58be ac0d 14bc 8877 4cbe
00000110: 5abe 2c3d a2d4 16bd da67 52bd 6fab 4bbe
00000120: 9b60 32bd 3e65 fe3d 2339 893e 7af7 c03d
00000130: 3161 26bc b866 543d 1e60 20bd bbca 7e3d
00000140: d511 d4bb cac7 a6bd 6dfc b8bc 06da 9cbd
00000150: 4a8a 773e b754 6e3a 5d0b 9b3d 75a2 4ebe
00000160: 071f 91bd a22c 63bc e623 e6bd 5511 0e3d
00000170: af12 133c 4736 08be c496 4abe 3d7d ce3d
00000180: 3120 96bd dfc8 533e 7ac3 84bc 957e 433e
00000190: 528e 85bc ae4a d3b9 0e69 9b3d 8443 173c
000001a0: 4172 87bb 5fd4 563d 6753 833e 7573 0cbe
000001b0: 51bb 43be 7951 d0bd 79eb a4be e366 2d3b
000001c0: 2fc7 9dbe 2358 1c3e 553a 08be a319 913e
000001d0: 84c5 b63a 7408 f93b cc1a d83c 1403 7ebd
000001e0: 2123 223e 0845 86bd 3ac6 7ebd 4ee5 383c
000001f0: 6e5e 533e e9de 38bd d69d 033d 5aa1 b73d
00000200: f9c9 0fbe 26ab e93b 2500 d5bd cd37 803d
00000210: ebee 8bbe 1f5d 753e d184 9f3d 593b 8c3c
00000220: 4264 ea3b b5d7 4e3d 16e7 0dbe ed76 fb3d
00000230: 8d87 523e 8abc fbbd 79fb da3d 0a32 213d
00000240: 0da8 d8bd d39e 08be 5d82 d4bd 270c a23c
00000250: 407a 233e de32 5c3e b3e4 c83d a96f 0a3e
00000260: dc7f 29bd f650 a1bd 2fae 63bb e02c 173e
00000270: 9355 ba3d 9a91 f4bd baeb 6ebe 5e50 c0bc
00000280: c806 abbc 7220 5c3d 761b 0c3e 45a1 1d3d
00000290: a6ad 8f3d 5d0d 893c 4b4f a93d 27ba 293e
-0.1937035 0.013115818 0.070901915 0.031465042 0.19921368 -0.050595783 0.016361753 -0.026973391
0.01051057 0.08547832 0.09487295 -0.13576974 0.08490292 -0.17624187 -0.10976207 -0.21507898
0.07926265 0.06694384 -0.007211262 0.04205354 -0.084641024 0.011695556 -0.1718203 0.14179683
0.07303605 -0.03047341 0.294584 -0.00534681 0.26824117 -0.15339014 0.044551052 -0.24565257
0.043835487 -0.10234212 0.067529395 -0.060593683 -0.22930712 -0.007010904 -0.066181704 -0.05390168
-0.2647198 -0.026095657 0.07173971 -0.079882815 0.23374899 0.04145546 0.083537884 0.047913272
0.2474115 -0.13129447 0.012269646 0.029099923 -0.070092276 0.007298207 0.08392122 -0.2311475
-0.30425367 -0.07064956 -0.08513745 -0.08386551 0.060359936 0.17702994 0.058464803 -0.013710438
-0.084140204 -0.2117114 -0.009036463 -0.19967473 0.04217372 -0.036823876 -0.05136857 -0.19889615
-0.04354916 0.12421654 0.26801404 0.094222024 -0.010155008 0.051855773 -0.039154164 0.062205058
-0.0064718523 -0.081435755 -0.022581303 -0.07658772 0.24173847 0.0009091603 0.07570527 -0.2017916
-0.07085996 -0.013865622 -0.11237316 0.034684498 0.0089766225 -0.13301955 -0.19784075 0.10082481
-0.07330359 0.20682095 -0.016206492 0.19091256 -0.016303215 -0.00040300697 0.07588397 0.009232406
-0.004133493 0.052448627 0.25649568 -0.13715918 -0.19114424 -0.1017179 -0.322109 0.002645903
-0.30816028 0.15267996 -0.13303502 0.28339872 0.0013944362 0.0075998846 0.026379965 -0.062014654
0.15833713 -0.065561354 -0.062200762 0.011285139 0.20641491 -0.04513446 0.032132946 0.08966322
-0.1404189 0.007130998 -0.10400418 0.06260643 -0.27330717 0.23961304 0.077890046 0.017118143
0.007153065 0.050498683 -0.13857684 0.12278543 0.20559521 -0.1229182 0.10692496 0.03935436
-0.10578928 -0.13341837 -0.10376427 0.019781185 0.15964603 0.2150378 0.09809246 0.13519157
-0.0413817 -0.0787677 -0.0034741273 0.14763212 0.09098353 -0.11941834 -0.2333211 -0.023475822
-0.020877257 0.05374188 0.1368235 0.038483877 0.07015543 0.016730005 0.08267077 0.16574918

fc3.bias f4 [2]
00000000: b3e1 633d 407d 4ebe
0.055635165 -0.20164967
