pth_files/race.pth (torch, 84365 bytes, 10 tensors)

conv1.weight f4 [6, 3, 4, 4]
00000000: 1770 febc 0ff6 c9bd 04c1 10bd 6374 cbbd
00000010: d221 d03d aec0 003e 03ac 54bd 1dca b7bd
00000020: 506f 0ebe c9a8 8a3c 1e53 bdbc 19f6 f83d
00000030: 3878 8d3d be09 013d bf9d 90bd 98c6 81bd
00000040: 2628 0fbe 49a1 663d 393a d5bd a2f1 f53d
00000050: 84ec 853c 9d16 cabd 526e 84bd 9dba 9b3d
00000060: 284b a23c 9ada a3bd abef 75bd 04a2 84bd
00000070: e19c fbbd 8bf4 39bd 9299 1d3d a003 deba
00000080: efde 1e3d 98c4 3f3d b264 afbd 9d59 b93c
00000090: a589 123e aa15 09bd 6e0e 0a3e f755 b83d
000000a0: cac1 fabd d20e 7cbd 3787 d93d 82da c3bd
000000b0: 5e97 8ebd 1426 12be 27cb c63d ab50 563d
000000c0: ed98 c4bd 1069 eebd 9b91 2a3d 6268 bbbd
000000d0: f33b 1f3d 5ff1 593c 1aca 21bc 7499 333e
000000e0: cb3b 8f3c 609e 463d b3a3 333e fb24 273e
000000f0: 964b 033e 0c2d 8a3d 7be8 423e 490f 3d3d
00000100: d9f8 94be 6538 6cbe cafe 6ebe a7f2 3dbe
00000110: b8da 28be b501 c6bd 6eef 6bbe 2e23 5ebe
00000120: 41b4 1bbc bbc1 54be 48a7 85be 0e58 093b
00000130: c25c 0bbe 03a3 93bc 747f dfba 7313 f13c
00000140: ae31 48be 9771 dabd e6f5 b0bd 751a 143c
00000150: 50e4 12be a4b4 1ebe 5e8a 42bd b0d5 0ebe
00000160: 73b8 63bd 4bad edbd 501a 113d d200 a1bd
00000170: 3c65 2e3e 9647 4e3e 29d9 283d c80b ba3d
00000180: 1db5 a9bd 34f1 5dbe 0132 76bd 9b17 1a3c
00000190: 3042 81be c14a 57be eb93 453c 9537 09be
000001a0: a717 78be 3417 52bd 905b 8d3d f482 1a3e
000001b0: eda5 6cbd 4fca de3d 5b9c 7ebd 16f4 9b3d
000001c0: 6e7e b0bd 7c9b b3bd 5106 b43d 8a69 283e
000001d0: 037d b3bd b228 58bd ae4c 523d 28d8 38bd
000001e0: 7cdd 7dbc 81ef ee3d 89c1 4b3e 5d8a 3a3e
000001f0: 722c 18bc 064b 743d 0734 7a3e b0c4 7f3e
00000200: 4a70 a83d 10ec ed3d 436e 9c3a 3f8f 92bb
00000210: eb20 243b 63f3 023e d55a d33c 941c 843e
00000220: 4f44 2dbc a341 423e b81c 073e f0f7 2a3e
00000230: 001d e63c 171c ae3d c4d5 863e 8fa5 813e
00000240: 5af0 a03e adb1 713d c5d7 ab3d d57c 683e
00000250: a2b0 233d 6277 83bd 965a ae3c 5a36 10be
00000260: 1c75 143d f927 98bc 8f55 133c b579 39bd
00000270: 78c4 223e 7bb4 cfbc 51e6 c03d e752 c13d
00000280: a988 b53e ec0d 163e 18c1 833e 83ee 033e
00000290: 9d55 073e 2fbe 7b3d e348 3cbd 03ff 483d
000002a0: 08b7 4bbc f6ab 663d ae17 fd3d e05e 233e
000002b0: dbbb 5d3e 97ec 35bb 18ef f13d 57e3 003e
000002c0: edc7 f13c 53dd 90bd aa6a 8b3d 546f fd3d
000002d0: b6b3 32bd 47bf 8ebd b96b 19bd 2339 1fbd
000002e0: 2f06 923d ba5a 08bd 2b51 a8bd 3e88 aa3d
000002f0: 602d fbbb cbcb d8bd b136 403d ca19 1c3e
00000300: e7ef fa3d 5a95 e43c b2cc bebd b068 15bd
00000310: 2e75 213d 2043 b0bb 4da5 f43d f40a 14bd
00000320: 1e47 a53b 3471 4f3d dd31 20be a6d3 e1bd
00000330: 59f9 293d a9ee df3d 970b b43d eac2 9c3d
00000340: 5e31 573d ec40 383d bc31 073e 4eb3 7a3d
00000350: d5c6 263a 318c 953c bbbd 24bc a40e b03d
00000360: 1287 62bb ac2a fe3c 8f74 b3bd f1ef b6bc
00000370: b8a4 c2bd 35d5 bfbd 999e 1bbe 30f4 5bbc
00000380: 5df7 14be 2368 edbd 7ffa ddbd 5657 283d
00000390: caab 09be d2ea 063d 259a 613d 1da2 85bd
000003a0: fde8 253d 3a14 b73c 09ce 41be 4966 b3bd
000003b0: 2fa4 29be 0b22 be3c 8b99 d03d ff43 dc3d
000003c0: 329c 933e 12ec c73d 7558 9b3e 8fc6 f03d
000003d0: 8a19 d23c 26d5 b83d 3d1d 193c 4300 b5bc
000003e0: 7456 5f3e 4902 0d3e 5a33 ca3c 0a44 f13d
000003f0: 6bf3 183e b793 f93c ca86 c33d c64c 0d3e
-0.031059308 -0.09861385 -0.035340324 -0.099343084 0.10162701 0.12573501 -0.051921856 -0.08974097
-0.1390965 0.016926186 -0.023110922 0.121563144 0.069076955 0.03150343 -0.07061338 -0.06336707
-0.13980159 0.056306157 -0.10411496 0.120089784 0.016348131 -0.098675944 -0.064663544 0.07603953
0.019811228 -0.08000679 -0.06004302 -0.064762145 -0.12285782 -0.04539923 0.038476534 -0.0016938336
0.038786825 0.046818346 -0.08564128 0.022625739 0.1431032 -0.033467926 0.13482067 0.090007715
-0.122439936 -0.06153757 0.10621493 -0.095631614 -0.06962465 -0.14272338 0.09706717 0.052323025
-0.09599481 -0.11641133 0.041642766 -0.09150769 0.03887553 0.013302176 -0.009874845 0.17539006
0.017484566 0.048490882 0.17542915 0.163227 0.12821802 0.06746873 0.19033997 0.046157155
-0.29096106 -0.23068388 -0.23339382 -0.18549596 -0.16489685 -0.09668294 -0.23040554 -0.21693107
-0.009503425 -0.20777027 -0.26104188 0.0020957026 -0.13609603 -0.018022066 -0.0017051534 0.02942822
-0.19550201 -0.10666197 -0.086406514 0.009039511 -0.14344907 -0.15498596 -0.04749524 -0.13948703
-0.055595826 -0.11605319 0.035425484 -0.078614846 0.17030805 0.20144495 0.041222725 0.09084278
-0.08286498 -0.21674043 -0.06010628 0.009405042 -0.2524581 -0.2102461 0.012059192 -0.13400109
-0.24227773 -0.05129166 0.0690223 0.15089017 -0.057775427 0.10878431 -0.06216083 0.07614915
-0.086178645 -0.08769891 0.08790267 0.1644651 -0.087640785 -0.052773185 0.05134266 -0.045128018
-0.0154947005 0.116667755 0.19898047 0.18216844 -0.00928794 0.05964186 0.2443391 0.24977374
0.082245424 0.11617291 0.0011934716 -0.0044726427 0.0025044035 0.12788157 0.025800148 0.25803053
-0.010575368 0.18970351 0.13194549 0.16696143 0.02809 0.085014515 0.26334965 0.25321624
0.31433374 0.059007335 0.08390764 0.2270387 0.039963372 -0.06419255 0.02128343 -0.14083233
0.036244497 -0.018573748 0.008992567 -0.045282084 0.1589526 -0.025354614 0.09418929 0.094396405
0.35455826 0.14653748 0.25733256 0.12883954 0.13216253 0.06146067 -0.045967948 0.049071323
-0.012433775 0.05631634 0.12358032 0.1595416 0.21653692 -0.0027759427 0.11813182 0.12586723
0.029514277 -0.07073464 0.06807454 0.1237475 -0.043628417 -0.06970077 -0.037456248 -0.03887285
0.07130086 -0.03328965 -0.082186066 0.083267674 -0.007665321 -0.105857454 0.046927158 0.15244213
0.12252789 0.027903248 -0.09316386 -0.03647679 0.039418392 -0.0053790957 0.11945591 -0.03614326
0.005043878 0.05064507 -0.15644021 -0.11026697 0.041497562 0.10934193 0.08791273 0.076543644
0.052537315 0.04498379 0.13202566 0.061206155 0.0006362026 0.018255325 -0.010055001 0.085965425
-0.0034565371 0.031026207 -0.08762466 -0.02233121 -0.09504074 -0.09366838 -0.15197219 -0.013424918
-0.14547487 -0.11592128 -0.10838794 0.041098915 -0.13444439 0.032938786 0.055078644 -0.06525061
0.040505398 0.022348512 -0.18926252 -0.08759744 -0.16566537 0.023209592 0.10185536 0.10755157
0.28830105 0.09761824 0.30340925 0.11756622 0.025646944 0.0902503 0.00934535 -0.022094851
0.21810323 0.13770403 0.02468269 0.117805555 0.14936607 0.030465944 0.09547193 0.13798818

conv1.bias f4 [6]
00000000: 575d 97bc 3a9f a53f 12c4 3ebe eeb6 49bf
00000010: b00b f1bc 60e1 d9bd
-0.018477125 1.2939217 -0.18629482 -0.78794754 -0.029424518 -0.1063869

conv2.weight f4 [16, 6, 4, 4]
00000000: 1c08 1bbd 7ed7 c7bd b5f3 a9bd 1dd0 c93c
00000010: 2237 aa3d fb7f 8fbd 3dad 41bc 99e8 33bd
00000020: 1724 89bd 6006 c0bd 4f1d 9f3c f81b 253d
00000030: 72c1 6cbd 369e f73c 0da6 a6bd 788f b43d
00000040: 005c 0d3d bc8e 963d bd87 e83d 5d6b f9bd
00000050: 8d8b 1ebe e7f8 e9bd 0889 19bd f02c a9bd
00000060: 1d11 e2bd b7af 27bd 3143 f23b deb0 1bbc
00000070: 6779 d3bd 61c2 3ebe 612a 40bd 1ec9 dabd
00000080: 3a07 e2bc 74fd f33b 97af a1bc 2d5a b63d
00000090: 5f7a 09bd e80f 383d 7b98 bdbd 5d0c a4bb
000000a0: b155 be3d 95ef 46bd c015 f339 cbfc b53c
000000b0: 8db7 7d3c 7327 10bd df31 ffbc 47f3 533d
000000c0: 341e b73d 99a9 863c 18a7 303d edef 0d3e
000000d0: 09f9 c23d 684d 88bd a930 05bc 7ac5 3a3d
000000e0: 33df 7c3d 11b3 98bd dac6 1e3c c31e 4b3d
000000f0: c6de 393d 415c b6bd 673b 27bd bcca 67bd
00000100: 9837 6dbd b382 983d 18da 92bd f63e f93c
00000110: 2a7d 64bd cc98 5b3c f6f2 453d 2981 59bd
00000120: 61b8 023d ec49 f63c 64b0 b0bd 0092 da3d
00000130: a506 eb3c 1fe9 b43d 413e 1dbc 273c 6a3d
00000140: f8c2 04bd 75de 32bc e583 5fbd a174 e3bc
00000150: d5a8 c3bc 3612 4b3a eb06 0a3d f288 53bd
00000160: 7040 4dbb a2dc a4bd 05cc 64bd f2cc e83d
00000170: 59dd 5ebc d26a a33d 5545 973d 533e 983a
00000180: 8c86 ba3c c406 803d 631c 9f3d 64a3 43bd
00000190: 5a84 20bd a7d9 5b3d c6d6 cabd 1364 ab3d
000001a0: b3c2 ae3d a955 b33d 8f85 e23c eca9 873d
000001b0: 67e5 9cbd dfe3 9fbb 9744 c2bd 80f1 67bd
000001c0: 4d89 d3bd 9ebb 983d 39e7 0b3d fcb7 223d
000001d0: 6ac6 473d eb36 b83c eb2d 9dbd 6c1a 90bd
000001e0: 0769 4cbd c10b 7cbd 208b 63bd 022a 4dbc
000001f0: c37f 5dbd 5120 85bc c43d a4bc 123f 86bd
00000200: b8ec 2f3e 2da2 4e3d d302 d13d 16d6 913d
00000210: 0047 173e b410 043d 4367 a5bd 5613 f23d
00000220: 04de 953d 37e0 193d 6100 81bd a1f9 5fbd
00000230: 112a 16bd 3888 debd 3caf 9e3d 67a7 94bc
00000240: 5496 813e 77c4 3a3d cc6b 2d3d 5811 d1bc
00000250: fb2a 263e 4f3b 1e3d a769 e2bd 7839 e5bd
00000260: 06d3 073d 49af dd3d fe61 24be bd1e 0cbe
00000270: a096 613d 5801 c53c 64c9 c43c 8cb2 b53c
00000280: abff dbbd 9309 35bd f6ca 5a3d b15c 49bd
00000290: 9a60 5f3d 5dbc 533d b36b a03d f37f 1339
000002a0: bcbf b3bd fd59 7bbd 1183 823d 0a8e d43d
000002b0: 3595 54bc 83f3 593d 1cec 00bd 05c6 b1bd
000002c0: baa7 cd3d 565b 0b3a 58e6 3fbd d672 5f3d
000002d0: 3e3f 103d ad6f f8bd 01e6 d8bd 6ca8 373c
000002e0: 168a 29bd fa7e db3c e8d4 aa3c e6a7 03bd
000002f0: 3a8a 033d 7c83 a5bc 7466 3fbd bdd6 8fbd
00000300: af8b 90bd f67b 04bd e166 be3d 5728 9ebc
00000310: eac2 d1bc 67c1 3e3d 51a0 babb 7c7a 993b
00000320: 9a8d 7dbd 526a 763d 8328 9eb8 ddc4 b03d
00000330: ab2b 843d 3300 a3bd 535c c8bd 7216 a13d
00000340: 1cc6 75bd c7b4 bf3d 3ff8 d93d 75ef 8c3c
00000350: 05ff 153d f083 993d 0601 bf3d 6d4b 0abe
00000360: 534f 6fbc c7fb 403e 9f6e 6bbd 2abc 12bc
00000370: f918 013d 352d 9b3d a298 77bd 0985 f73b
00000380: 842e a3bd 6acd acbd 5519 7d3d 7e43 2a3d
00000390: dc92 853c bcb6 b9bd be67 debd 6254 2bbb
000003a0: 22a4 b03d 3630 3dbd 232f 64bd 6d74 04be
000003b0: 3602 6fbd f7f1 64bd f829 af3d cdfa 83bd
000003c0: b478 a5be c668 06be 6b02 f6bd a908 de3d
000003d0: e3d6 afbe 63e0 7abe 2bd2 193d 7970 dc3c
000003e0: 44af 27be 45b0 b4bd fcdb 803c 8caf f8ba
000003f0: 2f46 a6bc 5b5b 1d3e f1b5 0d3e 1951 cc3c
-0.03784953 -0.09757899 -0.082984366 0.024635369 0.08311297 -0.07006832 -0.011821088 -0.043922994
-0.06696337 -0.09376216 0.019423155 0.040309876 -0.05780167 0.030226808 -0.081371404 0.08816427
0.034511566 0.07351443 0.11354015 -0.12178681 -0.15482922 -0.114244275 -0.0374842 -0.08260524
-0.1103842 -0.04093906 0.0073932637 -0.009502618 -0.1032589 -0.18628837 -0.046915416 -0.10682891
-0.027591337 0.0074459855 -0.019737048 0.089039184 -0.033563968 0.044937044 -0.09257599 -0.0050063566
0.09293688 -0.048568327 0.00046364777 0.022215268 0.015485656 -0.03519387 -0.03115171 0.05174568
0.08941308 0.016438292 0.043128103 0.13861056 0.09520156 -0.06655389 -0.008129277 0.045598485
0.061736297 -0.07456029 0.009690965 0.049589884 0.04537847 -0.08904315 -0.040828135 -0.056589827
-0.057914346 0.07446804 -0.07170504 0.03042553 -0.05578343 0.013403129 0.04832741 -0.053101692
0.03191412 0.030064546 -0.08627394 0.106723785 0.028689692 0.08833527 -0.009597362 0.057186272
-0.0324125 -0.010917296 -0.054569144 -0.027765574 -0.023884216 0.0007746549 0.033698004 -0.051644273
-0.0031318925 -0.08049895 -0.05585863 0.11367215 -0.013602578 0.07979359 0.07386271 0.0011615254
0.022769235 0.062512904 0.07769086 -0.047763243 -0.03918872 0.053674366 -0.09904246 0.08368697
0.0853323 0.08756573 0.027651576 0.06624207 -0.076609425 -0.0048794593 -0.09485739 -0.056626797
-0.103289224 0.0745766 0.034156058 0.039726242 0.048773207 0.022487124 -0.07674774 -0.070362896
-0.04990485 -0.061534647 -0.0555526 -0.0125222225 -0.05407692 -0.016250761 -0.020048983 -0.065549985
0.17180145 0.05044763 0.10205617 0.07120912 0.14773178 0.03224249 -0.08076336 0.11820094
0.07317737 0.037567344 -0.062989004 -0.054681424 -0.03666121 -0.108658254 0.07748267 -0.01814623
0.25310004 0.04559752 0.04233913 -0.025520965 0.16227333 0.03863078 -0.11055308 -0.11192602
0.033160232 0.108244486 -0.16053006 -0.136836 0.055075288 0.024048492 0.024021812 0.022179864
-0.10742124 -0.044198584 0.053416215 -0.049160663 0.054535486 0.05169331 0.07833042 0.00014066677
-0.08776805 -0.061365116 0.06372655 0.10378654 -0.012975027 0.053210746 -0.03147517 -0.08680347
0.10041757 0.00053160393 -0.046850532 0.054552875 0.035216562 -0.121306755 -0.10590745 0.0112095885
-0.041391455 0.026793946 0.020853475 -0.032142542 0.032114245 -0.020204298 -0.046728566 -0.0702338
-0.070578925 -0.03234478 0.09296966 -0.019306345 -0.025605638 0.04657116 -0.0056953807 0.0046837907
-0.06190262 0.06015999 -7.541573e-05 0.08631299 0.064536415 -0.079590224 -0.097832344 0.07865609
-0.060003385 0.093606524 0.10643052 0.017204026 0.03662016 0.07495868 0.09326367 -0.13505335
-0.014606315 0.18846045 -0.057478543 -0.008955995 0.031517956 0.07576982 -0.060448296 0.007553701
-0.079678565 -0.08437617 0.061791737 0.04156827 0.01630538 -0.09068057 -0.10859631 -0.0026142825
0.08625056 -0.046188556 -0.055709016 -0.12935038 -0.058351718 -0.05589482 0.08552927 -0.06444321
-0.32318652 -0.13125905 -0.1201218 0.108414955 -0.34343633 -0.24499659 0.037553947 0.0269091
-0.16375452 -0.08822683 0.015729897 -0.0018973215 -0.020297138 0.1536688 0.13838936 0.024941014

conv2.bias f4 [16]
00000000: e6c5 81bb b78c 863d 971b f1bc 0ba1 ad3c
00000010: c201 40bd 0329 0dbe 2ab2 c9bc f8f4 fbbd
00000020: 089a a8bd 1fb7 8e3d eebd 85bd 1c0a 023d
00000030: a6b6 6ebd 5a72 19be 9857 28be ccf2 05bd
-0.003960359 0.06569808 -0.029432101 0.021194955 -0.046876676 -0.13785176 -0.024621088 -0.123025835
-0.08232504 0.06968521 -0.06530367 0.031747922 -0.058279656 -0.14985028 -0.16439664 -0.032702252

fc1.weight f4 [120, 64]
00000000: 8ca6 2c3e 6950 bb3d 2dee 853d 7344 a03d
00000010: f929 c93d e117 f03d afdc f2bd 1552 1b3d
00000020: 9b2a 0fbe 3afc f23d bd7f e83d abcc 833c
00000030: 12e7 113d aaa2 e13d 71e6 dd3d 4f06 00be
00000040: 6cf1 353d a0ef 2c3d 2870 e4bd 9c48 51bd
00000050: fadc e13d b2eb 283e 79f5 cbbd c093 debd
00000060: 4937 cdbd 13ca b23d ee14 06be 5f2d 8a3d
00000070: e7e8 c037 dc7e a63d 6e95 19be 5b55 e7bd
00000080: 7967 7cbd 6db1 85bd 8e11 463c 4cd1 3b3d
00000090: a046 e73d 7715 043e 6565 2e3d 509d 2e3d
000000a0: f0a5 b33d 93bd 253d 3626 23bc 586b de3d
000000b0: 2fff 11be e48f 84bd 1fb1 de3d 6339 043e
000000c0: d8f6 84bd 9b7f e0bd 71f7 7d3b a1b5 2cbd
000000d0: 5c43 493d 9f49 af3c ec39 d7bd f9f4 69be
000000e0: 395f 493c 1126 e0bd c35e cf3d 0df5 97bd
000000f0: fb06 4c3d a16f 203e 4baf aebd a3c1 ae3d
00000100: 13a6 5e3d 0d52 ecbb 0f20 c83c b75b ae3d
00000110: 7589 cdbc 1735 563d 74eb 3c3d e57f e2bb
00000120: bf83 6cbc a9d3 f93d 6cd6 f83d af68 5d3d
00000130: 281a dc3d ff1e 94bd 401a 013d cb8b d5bd
00000140: 58e7 313d 8ce3 143d b000 c1bc ac15 abbd
00000150: 806c 4cbd 6d97 6c3b 2517 a1bd 830a a83d
00000160: 8743 cdbd f9ca c8bd ca1f 9bbd f3b2 d23d
00000170: cea9 2f3b 658f ee3c 6c6c 833d 2974 04be
00000180: 3acd 33bd 9187 2abd e89c 8f3d 252b 163d
00000190: 6068 883b 945a e43c 645e c8bd fd0f e63b
000001a0: b020 c4bc 37c4 28bd 18c9 4bbd d707 5a3d
000001b0: e528 40bd 7d3c 91bd 4c00 033e ede1 a13c
000001c0: 80cf d53d 0ea8 1d3b 90d4 89bd c436 84bd
000001d0: 3933 4fbd 9e6c 823c 9ac1 053e ace5 cbbd
000001e0: 0171 893d 9fe3 773d 8215 f3bd 0bfc 943d
000001f0: d633 713d a412 9dbd 64f3 933c 829a 243d
00000200: 0807 d3bd c5d7 92bc 1e00 a4bc 35d5 20bd
00000210: a106 fb3c 307d a93d a8f8 f0bd 9fcb 8f3c
00000220: 9289 b6bd 70fe 893c 0b8a bcbd 189b d3bc
00000230: 7a2a c13c 4745 d73d 1a96 12bd 9ca1 233d
00000240: d0de 25bd 04cb 643d b88d ba3d 74c7 52bd
00000250: 356b 9a3d fd7d 603d 3c9b e9bd 6ac6 5e3d
00000260: 4982 f23d c9a9 84bd 5509 8cbd 14b2 b63d
00000270: 0e12 a0bd 5a9b 803d 95ed 07be 15a9 fb3c
00000280: 62b4 d0bd 8b2b aabd b18a f0bb 3d99 a2bd
00000290: 5e4b 0c3c 4df7 053e b9d1 84bd 5980 993d
000002a0: e5f5 adbd 1f2b 233d 47ec fcbd 2ce0 af3d
000002b0: 2d34 ecbd 26c0 253d 7c6b bcbd 7416 003e
000002c0: 10c5 4d3d 520f 33bd 2e09 7c3d 34fa d6bd
000002d0: 974d 733d 8366 dfbc 56eb 793b 973f 6b3d
000002e0: 43d7 8ebb b7c8 9fbd 658f 2abd 45ba 023c
000002f0: ceaf 143d e870 cebc 7cc3 58bc b340 da3d
00000300: 338d 0cbd 71ec c83c 4c87 903d 5eb5 173d
00000310: 8e88 cbbd 5c00 67bd 418b 9ebd 37a8 503c
00000320: 747a 0e3d 43ff 653b dff0 eabd 92f6 bcbd
00000330: 6ef1 c7bd b4e4 ccbd d1d5 3bbd daca c7bd
00000340: dc3a 403d 5cfc bf3d f802 cabc 3eea 8a3d
00000350: 4e19 023d 1f72 a33a fd44 36bc 16f6 81bd
00000360: 40be ea3d 7c88 353b 6942 e73d 3ccd 5d3d
00000370: 26d4 eb3c d1aa adbd 5faa 693c 1afc eb3d
00000380: 369e d6bd 43ee 043c 6dce 58bc be3c c0bd
00000390: aa11 df3d 5d3a babd 9286 9c3c 021c 65bc
000003a0: f693 8b3c 4c91 6a3d f44c d5bc ea88 e93c
000003b0: afe8 98bd 6e71 733d e346 bcbd ae15 2cbd
000003c0: 88ba 333d 48fd afbc 5c64 753d 9e32 ce3d
000003d0: 0f2f 4bbd 570d f13c fb4b b63d 0e47 8ebd
000003e0: b7ed eebd 25fd 363d 330f 2abc 9764 17bd
000003f0: 8ece 843d 0b6e 8ebd 0370 bebd f5f7 d53c
0.16860408 0.091461964 0.06539569 0.07825556 0.09822459 0.117233045 -0.11858498 0.037920076
-0.13981096 0.11864515 0.11352489 0.016088804 0.035620756 0.11017354 0.10834969 -0.12502407
0.04441969 0.04222071 -0.111542046 -0.051094636 0.11028476 0.1649616 -0.099589296 -0.10868025
-0.100203104 0.08729949 -0.13093922 0.06746935 2.2996637e-05 0.08129665 -0.14998409 -0.11295577
-0.061622117 -0.06527982 0.012089146 0.045853898 0.112927675 0.12898813 0.042577166 0.042630494
0.087718844 0.040463995 -0.009957841 0.10860318 -0.14257501 -0.064727575 0.10873627 0.12912516
-0.06492394 -0.10961839 0.0038752223 -0.042165402 0.049136505 0.02139741 -0.105090946 -0.22847356
0.012290769 -0.109447606 0.10125496 -0.074197866 0.049811345 0.15667583 -0.08529528 0.08533027
0.0543576 -0.0072119297 0.02442935 0.08513587 -0.025089959 0.052296724 0.046122983 -0.006912219
-0.014435708 0.12198574 0.12150273 0.054054912 0.107471764 -0.072324745 0.031519175 -0.10427054
0.043433517 0.036349818 -0.023559898 -0.08353743 -0.04990816 0.0036101 -0.078657426 0.0820513
-0.100226454 -0.09804339 -0.07574423 0.10288038 0.0026804092 0.02912111 0.06417164 -0.12934937
-0.04389689 -0.041633192 0.07012349 0.03666224 0.004162833 0.027875222 -0.097836286 0.007020949
-0.023941368 -0.04120275 -0.049752325 0.053230133 -0.046914 -0.07091615 0.12793082 0.01976105
0.10439968 0.0024056467 -0.06729996 -0.06455758 -0.05058596 0.015920933 0.13062134 -0.09955916
0.06711007 0.06051981 -0.11869337 0.07274636 0.058887325 -0.07669571 0.018060394 0.040186413
-0.103040755 -0.017925153 -0.020019587 -0.03926583 0.03064281 0.08275831 -0.117661774 0.017553149
-0.08912958 0.016844958 -0.09206017 -0.02583079 0.023579825 0.105112605 -0.03578768 0.039949045
-0.040495694 0.055857673 0.09109062 -0.051459745 0.07539979 0.05480765 -0.11406562 0.05438844
0.11841256 -0.064776964 -0.068377174 0.089206845 -0.07815944 0.06279631 -0.13274224 0.030720273
-0.10190655 -0.083090864 -0.007340752 -0.07939384 0.008562891 0.13082619 -0.06485314 0.074951835
-0.08494166 0.039836045 -0.12349754 0.08587679 -0.11533389 0.04046645 -0.092001885 0.12508565
0.05023676 -0.043715782 0.061532192 -0.10496941 0.059400167 -0.027270561 0.0038134656 0.05743369
-0.0043591573 -0.07801955 -0.041640658 0.00797898 0.036300473 -0.025200322 -0.013230201 0.10656872
-0.034314346 0.024526807 0.07057056 0.0370382 -0.09938155 -0.056396827 -0.07741404 0.012735418
0.03478475 0.0035094775 -0.11471724 -0.09226717 -0.09762846 -0.10004559 -0.045858208 -0.09755488
0.046931133 0.093743056 -0.024659619 0.067829594 0.031762414 0.0012469924 -0.0111248465 -0.06345765
0.114620686 0.002769976 0.112919636 0.054150805 0.028787684 -0.08479846 0.014261811 0.11522694
-0.10479395 0.008113447 -0.0132328095 -0.09386586 0.10892041 -0.09093163 0.019107137 -0.013983728
0.017038327 0.057267472 -0.02603767 0.028507669 -0.07466256 0.059434347 -0.09193208 -0.042012863
0.043879062 -0.021483079 0.059910163 0.10068248 -0.049605425 0.029425306 0.08901211 -0.06947146
-0.11666434 0.04467501 -0.0103796 -0.036961164 0.0648471 -0.06954583 -0.09298708 0.026119212

fc1.bias f4 [120]
00000000: 6e07 903d c29a 52bd 9e51 b73d 2d97 7abd
00000010: e600 6ab9 3144 f1bd 3fc1 efbd b489 e83d
00000020: f04e f7bd 4703 efbc f30c 953b 5c39 b5bd
00000030: 8ce5 7dbd abff 6e3d 5aeb 063e 2457 82bd
00000040: 399a 663b 5e7d 6cbd 36c1 463c bcb6 c2bd
00000050: 208e 58bd 72a2 bbbd 13e0 28bd 5e22 413c
00000060: c58c a53c 3523 44bd 6dd1 dc3d dfdc b53c
00000070: 6f9f e1bd 5292 973c 7122 71bd caea 07bc
00000080: 38dc 2fbd a288 2fbd 34a5 cc3c b93d ef3d
00000090: 1644 263e 9a0b d8bd 49f9 d13c ac4a 65bd
000000a0: d55b 8d3e 7c76 68be e1cb 473e 94bd 043e
000000b0: e29b ffbc 8ad7 a23d 2c32 0b3e 08b1 b6bd
000000c0: 32f1 a03b ce4c 363e 1190 db3d 8af9 2d3e
000000d0: 5f64 9a3e 0a07 17bd 5a22 81bc fa11 fa3d
000000e0: 40be af3d 1eef 793c ab50 3fbd 5ead d5bd
000000f0: 885c eabc 9ae5 e4bd 1223 923d cd6d 03be
00000100: 847e 223b 8c2b be3d ad26 7bbd 8a99 03bd
00000110: 9879 1a3e b673 ecbd d188 643d 69e4 c43d
00000120: 4d27 ca3d fa22 5ebc 3c6f 253d e9af 1dbd
00000130: c0a3 993c 4c6b 37bd 452b 84bd b6eb 2c3c
00000140: 2183 1d3d 0ec4 8c3d b86c ecbc 5425 1fb9
00000150: 6636 c13c 1ce1 e1bd f035 fabd d7f0 8d3d
00000160: fad1 0e3d ebb3 d8bd 20d2 e83d a284 5a3b
00000170: 8c0e d73d ecfd 71bd 43f6 a73d f1e4 843d
00000180: c39e 643d 5ba2 d23d 3e12 f1bd 7b06 1dbe
00000190: 2c76 b83d 8357 313d d50f 71bc 4a42 cfbb
000001a0: 5d19 a2bc aae2 89bd 0a10 cdbb 4dca 9ebd
000001b0: 51de 6c3c 45c4 003e 5ff5 17bd d9d0 e3bd
000001c0: 1cbc ce3d 6d28 4e3e c907 c63d 205a 543d
000001d0: 43c4 9f3d efbd 7c3d 9b9e fcbd cfac 96bd
0.07032667 -0.05141712 0.08951114 -0.06117933 -0.00022316314 -0.117805846 -0.11706781 0.1135439
-0.12075603 -0.029176367 0.004548663 -0.08848831 -0.06198649 0.058349293 0.13175717 -0.06364277
0.0035187139 -0.057736747 0.012131026 -0.0950751 -0.052869916 -0.09161843 -0.04122932 0.011787979
0.020208726 -0.04788514 0.10782132 0.022200046 -0.11016738 0.018502388 -0.058870737 -0.008295724
-0.042934626 -0.042854913 0.024981119 0.116816945 0.1623691 -0.10549088 0.025631564 -0.055979416
0.27609125 -0.22701448 0.19511367 0.12962943 -0.03120226 0.07951267 0.13593358 -0.08920485
0.004911565 0.17802736 0.10720838 0.16989723 0.30154702 -0.036871947 -0.01576345 0.1221046
0.08581209 0.015254764 -0.04670779 -0.10433458 -0.028608575 -0.111766055 0.071355954 -0.12834854
0.0024794647 0.0928565 -0.06131618 -0.032128848 0.15085447 -0.115455076 0.05579454 0.09613878
0.09870777 -0.013558144 0.040389284 -0.03849784 0.01875484 -0.04478006 -0.064535655 0.010554245
0.038455132 0.06873332 -0.028860435 -0.00015177327 0.02358551 -0.11029264 -0.12217319 0.06930702
0.034868218 -0.10581192 0.11368203 0.0033343215 0.105008215 -0.05908005 0.082012676 0.064889796
0.05581547 0.10284873 -0.117710575 -0.15334503 0.090069145 0.04329635 -0.014713247 -0.006325041
-0.019787485 -0.06732686 -0.0062580155 -0.077534296 0.014457301 0.12574871 -0.03709924 -0.11123819
0.10094473 0.20132609 0.09669454 0.051843762 0.07801106 0.061704572 -0.12334939 -0.073571794

fc2.weight f4 [84, 120]
00000000: 9d80 a33d 2ce3 903d c146 afbd 11ba 183d
00000010: ce0e 5f3d 6a64 993d 721e ad3d 78dc 183d
00000020: a1fb 673d e6fb 2fbd 5ca6 9ebc 1b47 05bd
00000030: 2987 6d3d 8b8c 6b3d 11a5 4dbd c72d 88bc
00000040: 045c 893d abb4 a23d 7b43 70bd b6ad ab3d
00000050: e525 3bbc 8f64 91bd f95c 7e3d fe0e 04bd
00000060: 9b29 a13d 755c af3d c1ed 32bd 895f 823d
00000070: 143a 0c3d 7dc1 6d3c 323a 98bd 9963 94bd
00000080: f316 20bb a31d 64bc 10d1 4c3d 5c46 303d
00000090: 9753 dfbb d1a2 b83d 8222 abbd 4350 0b3d
000000a0: 827d abbd ee60 aa3b 344f 013d d6e0 bebc
000000b0: b959 7c3a b133 043d 0284 0e3d 6144 813d
000000c0: 329e b1bd 53c2 9db9 fdd0 41bd 1eab 843d
000000d0: 829b dfb9 a49c a43d 49b5 943c cc9a b5bd
000000e0: bc7d 5a3d 536e a63d 4efe 0d3d eb83 4c3d
000000f0: d38f 44bd 4477 023d 069d 03bd 829b a73d
00000100: 1039 ab3d c40c 9f3d c085 23bd d1d8 cfbd
00000110: c24f 013d d661 193d 4d8e 2ebd 1561 8d3d
00000120: 0392 93bd 09b2 23bd 614d 37bd e268 803d
00000130: 8e36 223d 00ac 09ba 6f30 ba3d 24f9 a43d
00000140: bb2c c83d 1fed 143c 447e 503d cabb 903d
00000150: 3d92 95bc f4bf a53d 3b95 893d 1643 e43c
00000160: aa2d 9d3c 99aa 563d 5f13 9ebd a244 823d
00000170: 66c8 3abd ec0d 143d 41d1 c73d 4221 703d
00000180: f283 493d 8e34 b9bd 73e9 433d 618e 4e3d
00000190: 4588 8bbd 150b a43d cd7a 843d 9388 353d
000001a0: c75b 413b 6948 b3bb b9ef 88bd 09d3 f13c
000001b0: 570e af3d b022 e03d 5697 03bd b40d 9e3d
000001c0: c1be 8dbd ca54 a6bc 84b6 b5bd 85a6 6d3c
000001d0: 0077 35bd 0d38 a7bd f1a1 96bd 7856 6a3c
000001e0: c834 41bd 67b8 5abd b35a c13c 2bff 7bbd
000001f0: 5ad1 99bc 4f7c 1d3d 0e51 b6bc 9b89 cdbd
00000200: 74b0 59bd 4d1d 903d b5c4 12bd be47 933d
00000210: 813e 943d 83a7 b43d 73ab 113c 4d7a 2d3d
00000220: be8c 80bd eb5f d13c 5d3e b23d 89d0 283d
00000230: 8c3c 2f3d b9a7 6cbd 802a 383c 30a4 463c
00000240: 747b 47bc a707 12bd e1ba 923a 75ba 9dbd
00000250: d2b9 6f3e 1db1 94bd e6a2 dabc a412 043d
00000260: 4398 9ebd f3aa 783d 4362 ab3c 10bc 6f3d
00000270: f8b7 f63a 69a2 4fbd 70a6 33bd 373a 113e
00000280: b10e 06be 20a1 f63d 2efd b0bd 9fbc 61bd
00000290: 2ebf 123b 1d4c 2a3d 527f 0bbb 2991 7abd
000002a0: 2375 0c3d ec8f f939 4294 5d3c 80b6 cbbd
000002b0: ac62 9bbd 2ca5 983d 01a3 1bbd b4bd 803d
000002c0: 0e6a de3c 4bb0 ff3d d14c 85bd 0e1f 973d
000002d0: 9e88 713d a399 48bd f849 8f3d b74d 933d
000002e0: d7e1 86bc c1c7 f0bb 17ff 92bd 363b cb3d
000002f0: 2eee 7ebc 1d8b 23bb 5b4d 54bd 8a0e 84bd
00000300: 95e7 f23c 3a45 e83c 3c94 7bbd 95b0 843b
00000310: de86 e33b 89fc a43d 1147 d43d a758 98bd
00000320: fbbe ee3c fba9 b9bc 2fae fe3d 04da 92bd
00000330: df1b d4bd e38e bf3c 7225 b43d b626 f8bd
00000340: 5b2f 32bd 7f39 f43b 8161 56bd 9e02 80bd
00000350: 2e2f 223d b385 3abc ceff 02be c587 063d
00000360: 6815 a83c e36c a3bd 71c7 b73d 76cf c63c
00000370: d6ae 32bd f933 9a3d 10dc 223e d088 8c3c
00000380: 2e45 8dbd 18ac 5d3d 6ac5 3c3d 09a3 a8bd
00000390: 9e97 8ebd 4636 dbbc bb36 d5bd af2a 8abd
000003a0: 5070 443b 10cf b13b 2c17 54bd 1a7e 9ebc
000003b0: b864 0d3e 473f a0bd 7d7c bbbd f6e6 513c
000003c0: 8afa 8dbd 0a8b 903d 9dfc b4bc f9f4 18bd
000003d0: c54d 2ebb 9384 48bc d6a7 a3bc 7a0f a1bd
000003e0: 473b 49bd 6968 5b3b 37d6 b6bc ffe1 bf3b
000003f0: 157f 033d 6b2e 0bbd f75c debd 88a3 39bd
0.079835154 0.070745796 -0.08558417 0.03728682 0.05445748 0.074898556 0.084530726 0.03731963
0.056636456 -0.04296484 -0.019366436 -0.032538515 0.057990227 0.05750708 -0.050206248 -0.01662339
0.06707004 0.07944616 -0.058658104 0.08382742 -0.011422609 -0.07099258 0.062100384 -0.03224086
0.07869264 0.08562557 -0.04368377 0.06365878 0.034235075 0.014511463 -0.07432975 -0.07245559
-0.0024427741 -0.013923082 0.050004065 0.04303585 -0.0068153846 0.0901543 -0.08356191 0.03401209
-0.08373548 0.005199543 0.031569675 -0.02330057 0.0009626407 0.03227586 0.03479386 0.0631187
-0.086727515 -0.00030090156 -0.047318447 0.064779505 -0.00042649737 0.08037689 0.01815285 -0.08867416
0.053342566 0.081265114 0.034666352 0.049930494 -0.047988724 0.03185202 -0.03213217 0.08183958
0.08360493 0.07766107 -0.039922476 -0.10148776 0.031570204 0.03744682 -0.042616177 0.069032826
-0.07205584 -0.03996471 -0.04475153 0.06270005 0.03960281 -0.0005251765 0.09091269 0.08055332
0.09774157 0.009089737 0.050901666 0.07067068 -0.018258208 0.08093253 0.067179166 0.02786402
0.019186813 0.05240879 -0.077185385 0.06360747 -0.04560127 0.03614609 0.09756709 0.058625467
0.0491981 -0.09043227 0.047830056 0.05042875 -0.06813101 0.08009926 0.06468735 0.0443197
0.0029504166 -0.0054712784 -0.066863485 0.029519575 0.08547657 0.10944116 -0.032126747 0.077174574
-0.06921149 -0.020304102 -0.08872703 0.014505033 -0.04430294 -0.08164988 -0.073551066 0.014302842
-0.047169477 -0.053398516 0.02360282 -0.061522644 -0.018776584 0.038448628 -0.022255447 -0.10036012
-0.053146794 0.07036839 -0.035832126 0.07191418 0.07238484 0.08821013 0.008890974 0.042352963
-0.062768444 0.025558433 0.08703301 0.0412145 0.04278235 -0.05777714 0.011240602 0.012124106
-0.01217543 -0.03565183 0.001119461 -0.077015795 0.23410729 -0.07260344 -0.026689004 0.03224434
-0.07743885 0.060709905 0.020920878 0.05852896 0.0018823138 -0.050691996 -0.0438599 0.14182363
-0.13091542 0.12042451 -0.0864204 -0.055111524 0.0022391784 0.041576494 -0.0021285606 -0.06117359
0.034291398 0.0004760021 0.013524117 -0.099469185 -0.075871795 0.07453379 -0.03799725 0.06286183
0.02715018 0.12484797 -0.06508792 0.0737897 0.05896818 -0.048974644 0.0699653 0.07192557
-0.01646511 -0.0073480313 -0.07177561 0.09923403 -0.015559716 -0.0024954744 -0.051831584 -0.064480856
0.029651443 0.028353322 -0.061420664 0.0040493705 0.0069435677 0.0805598 0.10365117 -0.07438784
0.029143801 -0.02266406 0.12435567 -0.071704894 -0.103568785 0.023383563 0.087962046 -0.121167585
-0.043502193 0.007453143 -0.05233908 -0.06250499 0.039595775 -0.011384415 -0.12792894 0.032844324
0.02051802 -0.07979753 0.08973587 0.024268847 -0.043623768 0.07529444 0.1590426 0.017155081
-0.068979606 0.0541192 0.046086706 -0.082342215 -0.069625124 -0.026759278 -0.1041083 -0.067464225
0.002997417 0.005426295 -0.05177991 -0.01934724 0.13807952 -0.07824569 -0.09154604 0.012811413
-0.06932552 0.070577696 -0.022093112 -0.037343 -0.0026596647 -0.012238639 -0.019977491 -0.0786428
-0.049128797 0.0033478981 -0.022318942 0.0058557983 0.032103617 -0.033979814 -0.108575754 -0.04532197

fc2.bias f4 [84]
00000000: 1fc1 03bd c948 673c b15b 403c c980 743e
00000010: 205b ee3d 4c05 8fbd 90d1 943d 0cb0 653d
00000020: b609 95bd 15df e5bc 2edf a8bd 2e33 373c
00000030: f095 3c3c d97a 323b 18c2 abbc 4383 123d
00000040: 560d 783e e19f 103e 8e4d b0bd 7713 afbd
00000050: 76b7 163c 5f67 e93b 406c b9bd 063c 95bb
00000060: b5b8 853b b2f0 693d 49df 383e 221a a6bd
00000070: e9ea 35bd 1a57 72bd ceb5 b8ba 5236 d2bc
00000080: 8cfd 2abd 5124 c03c 28b0 a13d 52a3 d6bc
00000090: 5696 9f3c 5c87 efbb d209 8cbd dda3 5e3b
000000a0: ad4c 7dbd 2b8a 433e 6dee cd3d b12b 83bd
000000b0: c6f3 55bd ccb2 743e c324 a03d 1e3f b73b
000000c0: f2b3 683c 415a 54b8 4444 8f3c 2a69 c13b
000000d0: bf1d 99bd b4cc 323b 0c25 02bd 2901 603e
000000e0: 7748 043e a4ec 193d 1f67 373e f72c a7bd
000000f0: 63f6 1bbd 4b1b d73d f767 23bd 80e1 89bd
00000100: 6ee9 89bd 9b2c 823d 03d7 7dbd 1902 43bd
00000110: b92e 25bd 6393 193e 1514 ca3c 7dd5 bdbd
00000120: a2ea ea3d 82cd 863e 3b8e 363c a7c5 3c3d
00000130: bc19 b2bd 912f d33c 3a4d e0ba b5cc 95bc
00000140: 2af3 bebc 30bc 83bd 753f 783d c745 513d
-0.032166597 0.014116474 0.011740611 0.23877253 0.116384745 -0.06983432 0.072665334 0.056076095
-0.07277243 -0.028060475 -0.08245693 0.011181636 0.011510357 0.0027233867 -0.020966575 0.035769712
0.24223837 0.14123489 -0.086085424 -0.085486345 0.009199014 0.0071229185 -0.0905385 -0.0045542745
0.0040808567 0.05711431 0.18053927 -0.08110453 -0.04441348 -0.059165098 -0.0014092268 -0.025660668
-0.041745707 0.023454817 0.07894927 -0.026200924 0.019480865 -0.0073098373 -0.068378106 0.0033972182
-0.0618407 0.19095676 0.10055242 -0.06404818 -0.052234434 0.2389633 0.07819512 0.005592241
0.014203059 -5.0628794e-05 0.017488606 0.005902429 -0.07476377 0.0027282657 -0.031773612 0.21875443
0.12918268 0.037579194 0.17910431 -0.08162873 -0.03807677 0.105032526 -0.03989407 -0.06732464
-0.06733976 0.06356164 -0.06197263 -0.047609422 -0.04032776 0.1499763 0.024667779 -0.09269235
0.11470534 0.26328665 0.011142309 0.046086933 -0.08696315 0.025779517 -0.0017112859 -0.018286088
-0.023309309 -0.06432378 0.060607392 0.051091935

fc3.weight f4 [5, 84]
00000000: b65c e3bd e689 08be 7c5e d7bd 15a3 553e
00000010: b230 e8bd a5aa a83c 7ea0 2d3e c8fd d0bb
00000020: 1d25 6c3c 759d 41bd c798 77bd 66f7 a1bd
00000030: acbf c4bd 01ed 8a3c dd93 cabc cdb2 23bd
00000040: 3aef 9c3e 5be0 413e d5a5 1fbe 6e8b 1ebe
00000050: 6922 c7bd 55d4 543e 6b3b 7cbd 43c8 523d
00000060: 7358 4fbc fa85 2b3c 93b7 493e 2a61 a2bc
00000070: dfff a63d 9bbb 09bd 6bda a53d 076d 1bbe
00000080: ea52 ccbc 33ac 673d 40dc c33d ac16 1fbd
00000090: 5f0d 6ebd 1cce 553d b249 e13d b13a 29be
000000a0: 0ff3 be3d 4a9a 6e3e 372d 37be acc6 573d
000000b0: fbec 7dbd 58da ee3e 0dad fcbc cf5a d43b
000000c0: bbd2 d1bd 0307 81bc 9afe 20be be03 5a3d
000000d0: 977c cebd 5f6c 52bd bb9a 703d 0935 883e
000000e0: 39cf 953e def3 8bbd 3636 963e a00d af3d
000000f0: 3831 77bd 7202 373d dc13 1cbd a131 2c3d
00000100: c4a4 dbbd 6733 613d b69e 9ebd bdc5 e4bd
00000110: 085d 27bd 3a1b 8b3e aff0 12be 962b 8a3d
00000120: 3981 f13d 298c 993e e200 f6bc 292e b3bd
00000130: f8b4 e13c 2524 0ebe 3789 32be b7ab 943d
00000140: 6096 36be 7fc4 84bd 8134 0a3e d52e 13be
00000150: b33e 433e e5da cabd af2b 5bbe 6847 8ebe
00000160: ab19 6ebd 4ff1 6c3d e397 a8be da0d 59be
00000170: 5021 763b 65da 0f3d 7760 963b 6f5f 283e
00000180: 6ad6 fc3d 2ec7 a13c 29ab 43be 64b1 41bd
00000190: 7b43 77bd 1f92 103e 2714 95be ebe2 903d
000001a0: 68e2 b6bd f791 2cbe 33ff bcbd 6873 843d
000001b0: 59dc 533d aa52 9e3d b4aa 733d 2272 823d
000001c0: 57f3 993d e9a8 b43d 980d 173b b0bd 7dbd
000001d0: 32cd b3bd 348f c1bc 5bd3 88be cf66 9fbc
000001e0: 2c60 3e3d b4e6 fb3d 7a2c 793d fc08 2dbe
000001f0: 8cef e63b 9039 94bd 20e3 99bb eb9b 9d3c
00000200: 875a 2cbe ab62 40be 137e ca3d 98f0 abbd
00000210: c69b 6b3c b1f4 b83d 94a1 483e ad0b af3c
00000220: 7132 e5bd 464a 813e b988 cfbd 7ff9 24be
00000230: 913f a6be 5e6a 89bd 517d 8ebd fd33 c5bd
00000240: 6e5e c73d c5a9 2fbe 7a80 8bbb 0b68 f0bd
00000250: a23c 22bc 1920 b33d 6f20 8b3c 884b 96bd
00000260: a772 01bd 40e0 0e3e 11fa e43d 031c 6d3d
00000270: b5ce cb3d aafd acbe 59b9 84be 3b00 2a3e
00000280: e14e 7c3d c40a 5bbd ce27 16bd d47d 6e3c
00000290: e621 74bc c9ac 033e 2446 38be 788e aabd
000002a0: 25e6 bcbd 0342 83be 34d6 ab3e a1ce a63e
000002b0: 2768 513e 8063 5c3d 7097 10be db34 9e3d
000002c0: b061 9c3d 1bc9 d93d f37d b6bd 5c50 afbd
000002d0: fab8 b23d 8fdd a93e cee8 adbd 61e2 35bd
000002e0: 35e2 f93d 2759 32bd e92b a03d ae14 c5bd
000002f0: b363 943d 442e 1fbe e559 41bd fdf3 273d
00000300: 79d4 eb3c 3ff8 7e3d 8ee3 45be d084 8cbd
00000310: 338d 10bd abda bfbb 9aca c93c 83ef 993d
00000320: f4f6 703d bada bf3d c2ec 7f3e a289 423e
00000330: 61c2 b23d 644c 7d3d 595a 863d c5ac 9e3e
00000340: 6733 f63a 77f2 d03c fa23 393e 490a 20bd
00000350: bd5d 833e 691b a2be acb9 3cbc 9f93 d7bb
00000360: 7bf2 8c3e 45c4 0abd e1d2 4bbd 9d28 f7bc
00000370: 214c 8bbd bbba 84be 31e1 b73d 5490 9ebd
00000380: c634 3c3d dc7c 5b3e 9fb3 36be ec86 89bd
00000390: b584 90bd 3672 843e d7d5 d43d 8b70 533e
000003a0: a4d6 f3bc f7f4 243e 720b 93bd dfcf 71be
000003b0: 14b7 9abc 2bca 38be a92e 493a 6040 6a3d
000003c0: 46fb 643c 1bcc 143d bb0a 0d3e d029 953c
000003d0: 31ef 39bd e4f8 12bd 8f46 ac3e 9ef8 3cbd
000003e0: b85c 39be ec7d 05be 6739 503e 6365 8c3c
000003f0: 8269 683c eea7 b63e cfac 2ebe cc40 9cbe
-0.111016676 -0.13333854 -0.10516068 0.20862992 -0.11337413 0.020589182 0.16955754 -0.0063779093
0.014413145 -0.047269303 -0.060448434 -0.07908516 -0.09606871 0.016958715 -0.02472871 -0.03996544
0.30651265 0.18933241 -0.15590604 -0.15482876 -0.0972336 0.20784123 -0.061580103 0.051460516
-0.012655365 0.010468954 0.19698934 -0.019821722 0.08154272 -0.03362618 0.080983005 -0.1517831
-0.02494188 0.056560706 0.09563494 -0.03883998 -0.05811822 0.052198514 0.110003844 -0.16526295
0.093237035 0.23301044 -0.17888342 0.052679703 -0.06199358 0.46650958 -0.030844236 0.006480552
-0.10245272 -0.015750414 -0.15722123 0.053226225 -0.100823574 -0.051372882 0.058741312 0.26602963
0.2925966 -0.06833623 0.29338235 0.08547521 -0.060349673 0.044680066 -0.038104877 0.042039517
-0.10724786 0.05498066 -0.077451155 -0.11170528 -0.040860206 0.2716921 -0.14349626 0.067465946
0.117922254 0.29989746 -0.030029718 -0.08749039 0.027552113 -0.13880976 -0.17435156 0.072593145
-0.17830801 -0.06482791 0.13496591 -0.14373334 0.19066887 -0.09905032 -0.21403383 -0.27788854
-0.058129948 0.057847317 -0.3292838 -0.2119669 0.0037556477 0.035120387 0.004589136 0.16442655
0.12345584 0.019748297 -0.19108261 -0.047288314 -0.06036709 0.14118241 -0.29116938 0.07074531
-0.08929902 -0.16852556 -0.09228363 0.064673245 0.05172381 0.07730611 0.059488967 0.06369425
0.075171165 0.088212796 0.0023048874 -0.06194848 -0.08779372 -0.023627855 -0.2672375 -0.019458203
0.046478435 0.122998625 0.06083343 -0.16897959 0.007047599 -0.07237542 -0.004696265 0.019239387
-0.16831408 -0.18787639 0.09887328 -0.08395499 0.014380401 0.09031046 0.19592887 0.021367872
-0.111912616 0.2525198 -0.101335 -0.161108 -0.32470372 -0.06709741 -0.06957496 -0.096290566
0.09734808 -0.17154606 -0.004257259 -0.117385946 -0.009902151 0.087463565 0.016983239 -0.07338625
-0.03160348 0.13952732 0.11180509 0.057888042 0.099515356 -0.3378728 -0.2592266 0.1660165
0.061598662 -0.053477064 -0.036659054 0.014556367 -0.01490066 0.12858881 -0.17995507 -0.08327955
-0.09223584 -0.256363 0.33561862 0.3257952 0.20449887 0.053805828 -0.14120269 0.07724925
0.0763582 0.10634061 -0.08910742 -0.08560249 0.08726688 0.33176848 -0.084916696 -0.044405345
0.12201349 -0.043542054 0.07820875 -0.09623085 0.072455786 -0.15544993 -0.04720487 0.04100417
0.028787838 0.062248465 -0.19325086 -0.068612695 -0.035290908 -0.0058549247 0.02463274 0.07516386
0.058829263 0.09367891 0.2499266 0.18997815 0.08728481 0.06184043 0.06560201 0.30991188
0.001878363 0.025506241 0.1808013 -0.03907231 0.25657454 -0.31661537 -0.011518877 -0.006578877
0.27528748 -0.033878583 -0.049761657 -0.030170733 -0.0680163 -0.25923714 0.08978499 -0.07742372
0.045948766 0.21434349 -0.17841958 -0.067151874 -0.07056562 0.25868386 0.10392349 0.206484
-0.029765435 0.16109072 -0.071799174 -0.23614453 -0.018886127 -0.18045871 0.00076744944 0.0571903
0.013975924 0.036327463 0.13773625 0.018208414 -0.045394126 -0.03588189 0.33647582 -0.046135537
-0.18101776 -0.13036317 0.20334397 0.017138189 0.014185311 0.35674995 -0.17058109 -0.30518186

fc3.bias f4 [5]
00000000: 7671 533f 11ef 15be 2f18 7ebe cce7 85bd
00000010: 687e 23be
0.82595 -0.14641978 -0.24813913 -0.06538352 -0.15966189
